StockPrediction/StockModel.pt (torch, 53667 bytes, 9 tensors)

lstm.weight_ih_l0 f4 [128, 1]
-0.2595761 -0.18288966 -0.30654234 0.14072347 -0.0007535521 0.085871235 -0.055785168 -0.12019473
-0.1599744 0.13152088 0.31444526 0.16100948 0.12547311 -0.0710946 0.013699848 0.18050703
0.1109387 0.098937094 0.005525971 -0.015132929 0.015491027 0.20362069 -0.16574895 -0.1845737
0.089402474 -0.10368938 -0.2351069 0.023183364 -0.22417289 -0.15270016 0.34008473 -0.2094422
-0.2654044 -0.3013267 -0.26821455 0.09905075 -0.197829 0.40196225 -0.06888987 -0.042000677
-0.099240534 0.3884162 0.2253302 0.32876307 0.17714766 0.1027425 -0.09407943 0.20616482
0.30532685 0.11025605 0.13561292 0.053577647 -0.010060167 0.39462602 0.115086064 -0.17319416
-0.024032759 -0.013441705 -0.20985103 -0.2256273 -0.109601274 -0.3214901 0.4582726 -0.1648803
0.23248205 0.20205046 -0.31279558 -0.07946289 0.30146742 -0.2406504 -0.25814846 -0.047174055
0.08185162 -0.23632964 0.16906345 0.2622702 0.0060181925 0.21312504 -0.27553016 0.19326799
-0.2822603 0.108366355 -0.16289277 0.0475617 0.31027505 -0.0127872825 0.13864833 0.010941496
0.04993491 -0.34449577 -0.10102363 0.27944523 -0.28483984 0.34231347 -0.26392817 -0.24500829
-0.18225373 -0.013271625 -0.25228783 0.18944654 -0.07182687 0.3839276 -0.24997182 0.18695806
0.046741597 0.18475299 0.3977651 0.23685002 0.28505412 0.16264825 -0.18166023 0.24227038
0.2482558 0.34456515 -0.0288452 0.14082578 0.021561919 0.3712884 -0.14969197 -0.02772824
0.14782491 -0.17528223 0.09384843 0.0056762556 -0.16560517 -0.30299106 0.3618572 -0.25327846
00000000: 29e7 84be 6d47 3bbe 1ef3 9cbe d019 103e
00000010: 078a 45ba 42dd af3d fd7e 64bd a828 f6bd
00000020: 54d0 23be 69ad 063e f8fe a03e abdf 243e
00000030: 067c 003e 0c9a 91bd 5475 603c d6d6 383e
00000040: d433 e33d 889f ca3d 3413 b53b 1bf0 77bc
00000050: 14ce 7d3c f181 503e 18ba 29be e300 3dbe
00000060: a518 b73d 195b d4bd ddbf 70be 0aeb bd3c
00000070: 948d 65be 6e5d 1cbe 961f ae3e 0478 56be
00000080: 16e3 87be 7e47 9abe 6b53 89be 1fdb ca3d
00000090: af93 4abe ffcd cd3e 2216 8dbd e708 2cbd
000000a0: 9f3e cbbd 7dde c63e f6bc 663e a253 a83e
000000b0: 3266 353e a96a d23d b7ac c0bd df1c 533e
000000c0: cd53 9c3e edcd e13d 1dde 0a3e 3c74 5b3d
000000d0: 66d3 24bc 6c0c ca3e 3eb2 eb3d cf59 31be
000000e0: 59e0 c4bc 993a 5cbc 30e3 56be d80a 67be
000000f0: a276 e0bd 5a9a a4be b5a2 ea3e 62d6 28be
00000100: c60f 6e3e 51e6 4e3e be26 a0be 71bd a2bd
00000110: f059 9a3e 0f6d 76be 092c 84be 9539 41bd
00000120: d2a1 a73d 6600 72be f81e 2d3e 4848 863e
00000130: 4234 c53b 733d 5a3e 4a12 8dbe 0be8 453e
00000140: 6c84 90be 2eef dd3d 5dcd 26be 0fd0 423d
00000150: 5fdc 9e3e c081 51bc d4f9 0d3e f643 333c
00000160: 8c88 4c3d c061 b0be 7ae5 cebd 7213 8f3e
00000170: 87d6 91be b643 af3e 9821 87be 74e3 7abe
00000180: b9a0 3abe 3b71 59bc df2b 81be 46fe 413e
00000190: f719 93bd 2992 c43e 9df8 7fbe ef71 3f3e
000001a0: 1e74 3f3d e32f 3d3e dea7 cb3e d088 723e
000001b0: 9df2 913e 438d 263e 2405 3abe ba15 783e
000001c0: c536 7e3e d86a b03e c54c ecbc a234 103e
000001d0: 9fa2 b03c 8319 be3e da48 19be 5526 e3bc
000001e0: 6a5f 173e 2f7d 33be 9b33 c03d e2ff b93b
000001f0: 6794 29be a521 9bbe 5945 b93e b7ad 81be

lstm.weight_hh_l0 f4 [128, 32]
0.12501535 -0.039656475 0.12370568 -0.15536712 -0.12051123 0.02857307 0.15570939 0.16372856
-0.0721163 0.17516336 -0.08418055 0.11109171 0.12882242 -0.15781096 0.11883932 0.17200388
-0.010233567 0.11391887 -0.13799652 -0.03092981 -0.06085579 0.3035079 -0.14464435 0.010912164
-0.05553188 -0.107001126 -0.023792526 -0.07806734 -0.11510733 -0.039174214 -0.076767184 -0.03386006
-0.10668746 0.028974503 0.17320901 0.10264274 -0.037769776 0.22159283 -0.015737101 0.092504464
0.12116651 0.19561265 0.13698608 -0.07690387 -0.06914494 -0.2001682 0.18212229 -0.14170058
0.09283887 -0.16203047 -0.08428259 0.06789179 -0.0030744988 0.23890725 0.15757322 -0.097298004
-0.035202388 0.10427522 0.1479622 -0.13432336 -0.11983166 0.08117351 0.08745764 0.022621425
0.09962144 0.050013557 0.06633208 -0.06979332 0.03734012 -0.030571645 0.17111948 0.16577715
-0.004511526 0.18859096 -0.049610388 -0.25732043 -0.07591863 -0.02304548 -0.04362316 -0.07713011
0.07229636 -0.07422997 -0.0053905416 -0.15092738 0.002209822 0.27519327 -0.024063988 -0.14708413
0.111457326 0.0969076 0.08161669 0.09219575 0.020196257 0.117030546 0.048653595 0.06702231
0.14302896 0.11404303 -0.20100214 -0.18298113 -0.070931405 -0.19967265 0.040456794 0.09874152
0.14604828 0.21075235 0.09416527 -0.0520675 0.10886362 0.095783785 -0.0051234015 -0.09358753
0.052927442 -0.020908415 -0.22937268 0.02877156 0.2041606 0.19810289 0.11156994 0.1339983
0.14954366 -0.21245502 0.026801292 -0.056199603 -0.14721604 -0.016277244 0.15918307 0.039595008
-0.19825426 0.045783024 0.08581321 -0.1773414 -0.08296732 0.21896297 0.13019247 -0.07588742
-0.02088737 0.0038751082 0.025366392 0.021847814 0.097610846 -0.18558761 0.1798471 -0.066225015
-0.13172324 0.019724134 -0.013601151 0.0050460473 -0.08959729 0.2354199 -0.19450763 -0.016335217
-0.15553549 0.086579315 -0.038166586 -0.062295504 0.075524144 -0.06591733 0.0864277 0.21122415
-0.13623777 -0.033633295 0.08608087 0.15859486 -0.06426598 0.0069725444 -0.073912136 0.04856815
-0.1440905 -0.09003499 -0.06806348 0.2558001 -0.03503519 -0.05548866 -0.17357191 0.23798776
-0.10193647 0.20527701 -0.17384319 -0.043912243 0.009337984 0.15615796 -0.09607982 -0.14677413
-0.121111676 -0.007278202 0.030668393 0.0892299 -0.19023621 0.04934056 0.056129824 0.03521551
-0.01826763 -0.17862022 -0.021101648 -0.15016066 -0.10315753 -0.053873546 -0.11233405 -0.15838228
-0.08015334 0.1578923 0.06635317 0.027861107 -0.14462423 0.03923638 -0.028445035 -0.028804248
0.003510376 0.035373066 0.16231172 0.11692901 -0.15375116 0.01766471 -0.038908467 -0.110917345
0.11906276 0.22729027 -0.014050528 -0.08187777 0.08252124 0.031385887 0.101665884 -0.0075826733
0.16448978 0.116697624 0.073905595 -0.002585323 0.1647913 0.033363517 -0.19881566 0.12143458
-0.046533816 0.2549579 -0.16657715 -0.25496984 0.2165692 0.13782887 0.11604755 -0.006954294
0.24954382 -0.12461424 -0.16850719 0.02256505 -0.081628166 -0.10463533 0.16329445 0.02438355
0.091304496 -0.09385202 -0.07299544 -0.063728385 0.0045697056 0.008657553 0.17462812 -0.03089626
00000000: 0604 003e d46e 22bd 6759 fd3d 8f18 1fbe
00000010: 97ce f6bd 1212 ea3c 4872 1f3e 76a8 273e
00000020: b6b1 93bd 065e 333e da66 acbd 0d84 e33d
00000030: 06ea 033e 3299 21be 0862 f33d c921 303e
00000040: b1aa 27bc 4c4e e93d f64e 0dbe 8360 fdbc
00000050: ec43 79bd 6365 9b3e a61d 14be efc8 323c
00000060: 6675 63bd 6823 dbbd 8be8 c2bc c5e1 9fbd
00000070: 64bd ebbd 2475 20bd 1d38 9dbd d9b0 0abd
00000080: f47e dabd f05b ed3c b45d 313e 5b36 d23d
00000090: 7bb4 1abd 3be9 623e 18eb 80bc fb72 bd3d
000000a0: 2626 f83d af4e 483e 1446 0c3e c77f 9dbd
000000b0: dd9b 8dbd e5f8 4cbe 447e 3a3e f519 11be
000000c0: 4e22 be3d 51eb 25be 5a9c acbd da0a 8b3d
000000d0: 887d 49bb 1aa4 743e e05a 213e 2d44 c7bd
000000e0: 6130 10bd 3f8e d53d 6783 173e 108c 09be
000000f0: 4d6a f5bd 4c3e a63d fe1c b33d 9150 b93c
00000100: 5306 cc3d 04db 4c3d 1dd9 873d cdef 8ebd
00000110: f4f1 183d 6371 fabc f239 2f3e 7cc1 293e
00000120: 6cd5 93bb fd1d 413e 4334 4bbd 81bf 83be
00000130: 3a7b 9bbd e0c9 bcbc 33ae 32bd 64f6 9dbd
00000140: 1d10 943d e205 98bd 24a3 b0bb b58c 1abe
00000150: a9d2 103b 22e6 8c3e d721 c5bc 399d 16be
00000160: bd43 e43d 7e77 c63d a726 a73d 20d1 bc3d
00000170: 9f72 a53c b6ad ef3d fe48 473d fe42 893d
00000180: 2f76 123e 648f e93d 81d3 4dbe 685f 3bbe
00000190: 7c44 91bd fd76 4cbe 06b6 253d fe38 ca3d
000001a0: ae8d 153e 77cf 573e b9d9 c03d bb44 55bd
000001b0: e4f3 de3d 4a2a c43d 35e2 a7bb d2aa bfbd
000001c0: 72ca 583d 2048 abbc ace0 6abe 56b2 eb3c
000001d0: 7a0f 513e 7cdb 4a3e c87e e43d da36 093e
000001e0: f921 193e cf8d 59be 628e db3c 8e31 66bd
000001f0: cdbf 16be db57 85bc e300 233e 602e 223d
00000200: 2a03 4bbe fb86 3b3d d6be af3d fc98 35be
00000210: c5ea a9bd d437 603e 2d51 053e dd6a 9bbd
00000220: fd1b abbc 87f5 7d3b 2ecd cf3c 30fa b23c
00000230: 32e8 c73d ae0a 3ebe d729 383e fba0 87bd
00000240: 75e2 06be 8294 a13c 5dd7 5ebc 5059 a53b
00000250: c97e b7bd ea11 713e 022d 47be 6fd1 85bc
00000260: b244 1fbe 7f50 b13d 9154 1cbd 9229 7fbd
00000270: 67ac 9a3d aaff 86bd 0201 b13d 254b 583e
00000280: ea81 0bbe 11c3 09bd 2b4b b03d b166 223e
00000290: e29d 83bd f179 e43b 3f5f 97bd 65ef 463d
000002a0: 768c 13be 4464 b8bd de64 8bbd 3bf8 823e
000002b0: 0f81 0fbd 1448 63bd d6bc 31be 10b3 733e
000002c0: 11c4 d0bd 2334 523e f303 32be 53dd 33bd
000002d0: 58fe 183c dfe7 1f3e 7fc5 c4bd f54b 16be
000002e0: 6609 f8bd fc7d eebb 483c fb3c 2abe b63d
000002f0: 48cd 42be 5419 4a3d 63e8 653d 233e 103d
00000300: ffa5 95bc 38e8 36be 5ddd acbc b7c3 19be
00000310: 4144 d3bd 82aa 5cbd 650f e6bd f72e 22be
00000320: 6f27 a4bd 85ae 213e 2ce4 873d fa3c e43c
00000330: 6018 14be 54b6 203d 9005 e9bc e3f6 ebbc
00000340: 560e 663b 59e3 103d 0b35 263e 7a78 ef3d
00000350: f270 1dbe 95b5 903c 7c5e 1fbd a228 e3bd
00000360: 2dd7 f33d c8be 683e 3034 66bc 88af a7bd
00000370: e500 a93d 7d8e 003d 3436 d03d 1378 f8bb
00000380: 0270 283e 2aff ee3d d15b 973d 866e 29bb
00000390: 0dbf 283e 2fa8 083d 5596 4bbe b1b2 f83d
000003a0: 3e9a 3ebd d889 823e 3393 2abe 688b 82be
000003b0: 51c4 5d3e 0323 0d3e 57aa ed3d d9e0 e3bb
000003c0: 6a88 7f3e c035 ffbd 268d 2cbe 57da b83c
000003d0: ab2c a7bd 0c4b d6bd a936 273e 03c0 c73c
000003e0: dafd ba3d 7d35 c0bd a27e 95bd 0784 82bd
000003f0: 78bd 953b 69d8 0d3c b7d1 323e 271a fdbc

lstm.bias_ih_l0 f4 [128]
-0.07197675 -0.14939305 -0.04233527 -0.12138229 0.07842799 0.04132644 0.19029129 -0.077619135
0.07638172 0.03119483 -0.27839878 -0.08133488 -0.24044707 -0.01087987 0.03283815 -0.15653193
0.2434886 -0.18905379 -0.087486096 0.121083714 -0.037843924 0.005177685 0.09017059 0.017853634
0.14095825 0.014569227 0.051416468 -0.055149805 -0.040679023 -0.15437335 -0.06944243 0.18297237
0.16518937 -0.10769596 -0.091312446 -0.038294572 -0.027821014 -0.030773783 -0.13162883 0.022178506
0.13584438 -0.18142897 -0.1954159 0.092890516 -0.14280047 -0.00084084325 0.006899271 -0.10715781
0.01163597 0.04257824 -0.045931526 0.07849257 0.11099566 0.027317138 -0.1545171 -0.06213644
0.094003506 -0.083573736 -0.13588074 -0.09322781 -0.10392916 0.017178273 -0.13119154 0.015261246
0.07416652 -0.13886137 0.04693516 0.10806503 0.032900285 -0.052398276 0.08930134 -0.031787124
-0.07016462 0.007874136 0.009627021 0.1412166 -0.03304196 0.0017811244 -0.060238354 0.035656184
-0.046478905 -0.04560097 -0.1567319 0.022871612 0.08666558 0.06895192 -0.095613666 -0.00650394
-0.1706237 -0.019333227 -0.11208826 -0.009773998 -0.13203497 -0.04711461 -0.13292171 0.043917995
-0.034217354 -0.12042229 -0.071316 -0.17473157 -0.08488224 0.1291892 0.103450075 0.07044385
0.061332457 0.048031103 -0.28224126 0.19118503 0.009314057 -0.1718284 0.16700742 -0.13743384
-0.105893254 -0.13916469 -0.02137007 -0.05425604 0.021001264 -0.15549755 0.15194382 0.03904244
0.00298503 0.2708935 0.13586652 -0.012368428 0.046566933 -0.023167413 0.09155435 -0.045262005
00000000: 8c68 93bd 7efa 18be c067 2dbd 4797 f8bd
00000010: db9e a03d ea45 293d b8db 423e c8f6 9ebd
00000020: 056e 9c3d 4d8c ff3c 498a 8ebe e792 a6bd
00000030: c237 76be 7b41 32bc 4c81 063d e849 20be
00000040: 1355 793e 5197 41be e92b b3bd bdfa f73d
00000050: 3b02 1bbd 92a9 a93b 5cab b83d c941 923c
00000060: 5c57 103e c4b3 6e3c 139a 523d c3e4 61bd
00000070: 0c9f 26bd 0c14 1ebe d537 8ebd 1c5d 3b3e
00000080: 6727 293e b38f dcbd 0502 bbbd c5da 1cbd
00000090: e5e8 e3bc 4d19 fcbc b5c9 06be b3af b53c
000000a0: ca1a 0b3e 84c8 39be 1b1b 48be 623d be3d
000000b0: 493a 12be 096c 5cba 4813 e23b 8e75 dbbd
000000c0: cca4 3e3c 8566 2e3d b222 3cbd b6c0 a03d
000000d0: b151 e33d 31c8 df3c bb39 1ebe c882 7ebd
000000e0: e984 c03d b528 abbd 5224 0bbe 39ee bebd
000000f0: d0d8 d4bd 73b9 8c3c 1357 06be 4e0a 7a3c
00000100: 9ee4 973d ad31 0ebe 153f 403d 3351 dd3d
00000110: 73c2 063d 939f 56bd 9fe3 b63d 3733 02bd
00000120: 78b2 8fbd 8502 013c a7ba 1d3c 169b 103e
00000130: 0257 07bd 9e74 e93a 7ebc 76bd 380c 123d
00000140: aa60 3ebd 15c8 3abd 547e 20be 3f5d bb3c
00000150: b97d b13d aa36 8d3d 19d1 c3bd 011f d5bb
00000160: fbb7 2ebe b760 9ebc 888e e5bd 1e23 20bc
00000170: 2d34 07be 40fb 40bd a11c 08be 5be3 333d
00000180: 7f27 0cbd f69f f6bd 1f0e 92bd d5ec 32be
00000190: bdd6 adbd 2c4a 043e a2dd d33d dd44 903d
000001a0: be37 7b3d 43bc 443d ed81 90be 02c6 433e
000001b0: fd99 183c c9f3 2fbe fe03 2b3e 75bb 0cbe
000001c0: 90de d8bd 3081 0ebe 4910 afbc 953b 5ebd
000001d0: d80a ac3c c03a 1fbe 2997 1b3e f7ea 1f3d
000001e0: 7ea0 433b 8eb2 8a3e 9820 0b3e f2a4 4abc
000001f0: f8bc 3e3d 96c9 bdbc d980 bb3d a764 39bd

lstm.bias_hh_l0 f4 [128]
-0.058044497 0.10903148 0.091495425 -0.15556604 0.040026806 -0.0844474 0.18967238 -0.06969834
0.1111409 0.16197452 -0.09021473 0.1537038 -0.16083452 -0.08598164 -0.069031164 0.08360196
0.1820331 -0.076475754 -0.067043185 -0.018931463 0.22114189 -0.07355518 -0.07444128 -0.03734885
-0.083521076 0.24550624 -0.1465819 -0.07399883 -0.069105074 0.1765309 -0.06176253 0.057784405
0.16923387 -0.12197287 -0.105090834 -0.10072018 -0.09919258 0.19206113 0.16048454 -0.021054458
-0.040465232 -0.09022827 -0.113157004 0.15273021 -0.18248293 -0.19726348 0.17768717 0.034413673
-0.13904586 -0.0866151 0.03394069 0.01688556 0.20057426 -0.05346883 -0.1230849 -0.02394942
0.01550024 -0.039237536 -0.12714711 -0.030118907 0.13274963 0.038331077 0.05490302 0.11218226
-0.007804631 -0.068371944 0.10483661 -0.09499205 -0.024379632 -0.0732796 -0.18435188 0.0038257702
-0.04743659 -0.071195595 0.04246151 0.0031926758 0.02065336 0.09258852 -0.013440881 0.08133368
-0.13384193 0.17793384 0.07350454 0.047097664 -0.044043258 -0.007523844 -0.015447544 -0.010907137
0.072075754 0.0273751 -0.12595478 0.084476024 0.097576156 -0.096250124 -0.1365084 0.042409014
-0.039171085 -0.080941886 -0.028624134 -0.18322997 -0.06384811 0.18007801 0.09304677 -0.084109575
-0.04975942 -0.1668634 0.051224593 0.10998708 -0.048798483 -0.16617402 0.17312104 0.02162305
0.219498 -0.20387094 -0.24509758 0.052853 0.11597032 -0.2344508 -0.06245503 0.06400623
0.044543345 0.21456972 0.045387883 0.18198892 0.18094277 0.122187704 0.13895027 0.09825992
00000000: 11c0 6dbd e64b df3d f461 bb3d b44c 1fbe
00000010: 26f3 233d c2f2 acbd 7a39 423e 01be 8ebd
00000020: d79d e33d a6dc 253e 80c2 b8bd 8764 1d3e
00000030: ceb1 24be 2417 b0bd 3660 8dbd 8137 ab3d
00000040: e366 3a3e 529f 9cbd f04d 89bd 2816 9bbc
00000050: 0573 623e 19a4 96bd ab74 98bd 1cfb 18bd
00000060: 190d abbd fd65 7b3e 9119 16be b38c 97bd
00000070: f686 8dbd 84c4 343e b5fa 7cbd 57af 6c3d
00000080: a54b 2d3e e9cc f9bd dd39 d7bd 6246 cebd
00000090: 7b25 cbbd acab 443e 0f56 243e 667a acbc
000000a0: dfbe 25bd 99c9 b8bd dcbe e7bd 4f65 1c3e
000000b0: cedc 3abe 70ff 49be a0f3 353e 5af5 0c3d
000000c0: 0a62 0ebe 4263 b1bd 6505 0b3d 9653 8a3c
000000d0: 5763 4d3e 2202 5bbd f013 fcbd 9331 c4bc
000000e0: b8f4 7d3c 8ab7 20bd da32 02be edbb f6bc
000000f0: 85ef 073e 0c01 1d3d fde1 603d d0bf e53d
00000100: fdbd ffbb 9706 8cbd 94b4 d63d 318b c2bd
00000110: cbb7 c7bc 9d13 96bd bdc6 3cbe c6b9 7a3b
00000120: df4c 42bd ffce 91bd 1fec 2d3d 363c 513b
00000130: 3c31 a93c 0d9f bd3d 2437 5cbc 4692 a63d
00000140: dc0d 09be 4a34 363e 8c89 963d 7be9 403d
00000150: b466 34bd 948a f6bb b217 7dbc d9b3 32bc
00000160: 749c 933d bf41 e03c 4afa 00be c401 ad3d
00000170: 02d6 c73d c91e c5bd dcc8 0bbe 13b5 2d3d
00000180: dc71 20bd dcc4 a5bd 297d eabc a3a0 3bbe
00000190: ccc2 82bd 5f66 383e 4e8f be3d a441 acbd
000001a0: 89d0 4bbd 3dde 2abe e1d0 513d e840 e13d
000001b0: ebe0 47bd 8629 2abe a446 313e d322 b13c
000001c0: 15c4 603e 8bc3 50be dcfa 7abe 637c 583d
000001d0: d981 ed3d df13 70be d8d0 7fbd b315 833d
000001e0: 1573 363d 2ab8 5b3e a5e8 393d 4e5b 3a3e
000001f0: 1049 393e 8c3d fa3d fb48 0e3e 7f3c c93d

lstm.weight_ih_l1 f4 [128, 32]
-0.13869251 0.019704603 -0.074602336 0.11702623 -0.11158759 -0.090236716 -0.20197007 0.15414703
-0.010224855 0.11353503 0.023861753 0.23866026 -0.22829759 0.21076466 0.21538943 -0.07871317
-0.044589777 0.013217082 0.030314675 -0.15569544 -0.014507247 -0.05404058 -0.09641796 -0.06093594
0.069327645 -0.118277945 -0.022736564 0.0075446814 0.0980478 0.105949394 0.055630203 -0.115614206
-0.26059258 0.10962845 0.05288653 -0.1487724 -0.1731131 0.08028089 -0.02371772 0.20504443
0.13454996 0.120195776 -0.08608284 -0.17505075 0.029087951 -0.28172654 0.066586964 -0.13603415
0.26729548 0.074820705 0.1428091 0.13556342 -0.25307482 0.13213183 -0.1671939 0.012273494
-0.14290786 0.23845309 0.16941445 -0.01849559 0.11586083 -0.22442743 0.27077183 0.20628661
-0.09550525 -0.18645082 0.16931011 0.12249867 -0.121759795 0.045967896 0.11090763 0.091700755
0.1650167 0.0055845617 0.10833442 0.08111866 0.027403569 -0.05594258 0.027447607 -0.042614598
-0.100490324 -0.0908503 -0.05145727 0.107034266 -0.11450954 -0.08086311 0.12825595 0.11988824
0.056984365 0.17674261 0.032896772 0.0062343986 0.14574629 0.06218641 -0.0014348823 -0.08338963
-0.13694994 0.010006207 0.19662222 -0.09127629 0.018622106 0.24002534 -0.028352221 -0.017781423
0.037697654 0.011826198 -0.00025742716 -0.14189094 -0.20512126 -0.28256887 0.27916777 0.04803955
0.12296329 0.14154921 0.059945744 -0.13450022 -0.1431749 0.009258142 0.08781506 0.17877977
0.073829874 -0.0238688 0.18135653 -0.04844265 0.1558937 -0.19807355 0.09239785 0.1089933
-0.0031331293 -0.18119213 -0.037016965 -0.08146946 0.06464022 -0.035126593 -0.07042053 0.116436474
-0.050334077 -0.056051947 -0.124030784 -0.055543568 -0.020725453 0.007997576 0.18857746 -0.0298653
-0.10923572 -0.18259402 0.17403945 0.004536051 -0.08300054 0.053820793 -0.15396939 0.013244978
0.10081874 0.19251181 -0.08728854 0.03937648 0.105985135 -0.14833589 -0.11487333 0.04554129
0.122611545 0.010579742 0.044413958 -0.06704654 0.17389049 0.15904959 -0.17722079 -0.02646441
0.13137038 0.045721833 0.012556439 -0.11371608 0.014044453 -0.0015910458 0.046290908 -0.15549965
0.21349397 -0.08325101 0.13359226 -0.22492787 0.08230654 0.08607635 -0.04511712 0.04826636
0.19175695 -0.016051862 0.16158436 -0.012993435 -0.16368885 0.14871001 0.09867842 -0.16270491
-0.10696942 0.037889037 0.13187358 -0.1449877 -0.053252127 0.041058276 -0.058404397 0.03817507
-0.12790531 0.09176487 -0.0705174 -0.018206507 -0.13851288 -0.1207906 0.26529717 -0.117834665
0.15226021 -0.14100301 0.15862355 0.07736155 -0.10679839 -0.11857306 -0.17362426 0.17402375
0.03173661 0.2645961 -0.06343722 0.11347979 0.14657168 -0.13688312 0.21729396 -0.068718255
-0.030406643 0.035305846 -0.066341914 -0.12889308 -0.12261313 -0.16765513 0.013781065 -0.026978461
-0.006324261 -0.07523138 0.14424288 0.05704567 0.013624332 0.16396101 -0.13199309 0.16364707
-0.32414144 0.20548828 -0.21909395 0.124855556 0.25236 -0.09406315 -0.08018244 0.21261871
-0.0879131 -0.0072074444 -0.11393981 0.075522974 -0.013204413 0.007462284 -0.09548029 0.14376101
00000000: 6905 0ebe 8c6b a13c 1cc9 98bd 73ab ef3d
00000010: 0988 e4bd 07ce b8bd 3ed1 4ebe b8d8 1d3e
00000020: 2686 27bc 0e85 e83d b979 c33c 5b63 743e
00000030: d8c6 69be b1d2 573e 0c8f 5c3e 5f34 a1bd
00000040: c5a3 36bd 768c 583c 7b56 f83c a06e 1fbe
00000050: ceaf 6dbc a859 5dbd c876 c5bd f797 79bd
00000060: a7fb 8d3d b53b f2bd 0842 babc 6039 f73b
00000070: 49cd c83d fffb d83d 7fdc 633d 24c7 ecbd
00000080: 646c 85be e184 e03d 8c9f 583d cb57 18be
00000090: 8f44 31be 4f6a a43d aa4b c2bc 2bf7 513e
000000a0: 77c7 093e 3429 f63d 334c b0bd 8140 33be
000000b0: db49 ee3c 763e 90be bf5e 883d 894c 0bbe
000000c0: f4da 883e 993b 993d 8c3c 123e 23d1 0a3e
000000d0: 0693 81be 914d 073e e134 2bbe c416 493c
000000e0: 7056 12be 0c2d 743e fb7a 2d3e 1084 97bc
000000f0: 7148 ed3d 4ed0 65be 9ba2 8a3e cc3c 533e
00000100: 4298 c3bd f7ec 3ebe a15f 2d3e 95e0 fa3d
00000110: 335d f9bd d548 3c3d 8a23 e33d 9bcd bb3d
00000120: 23fa 283e b3fe b63b 70de dd3d 8a21 a63d
00000130: 737d e03c 0c24 65bd ced9 e03c a58c 2ebd
00000140: dfcd cdbd b90f babd dcc4 52bd c834 db3d
00000150: fa83 eabd 8f9b a5bd 8755 033e f787 f53d
00000160: 7068 693d 04fc 343e c4be 063d ed49 cc3b
00000170: 843e 153e 2db7 7e3d a912 bcba 2fc8 aabd
00000180: 9b3c 0cbe 13f1 233c 5657 493e 10ef babd
00000190: 638d 983c 34c9 753e eb42 e8bc 59aa 91bc
000001a0: db68 1a3d abc2 413c 4af7 86b9 dc4b 11be
000001b0: 4f0b 52be deac 90be 14ef 8e3e 1fc5 443d
000001c0: 2dd4 fb3d 47f2 103e ab89 753d 6dba 09be
000001d0: 719c 12be 76af 173c 62d8 b33d 0b12 373e
000001e0: 1e34 973d 8088 c3bc 87b5 393e cd6b 46bd
000001f0: 99a2 1f3e cbd3 4abe 153b bd3d e137 df3d
00000200: 3055 4dbb 6e8a 39be 1a9f 17bd 76d9 a6bd
00000210: 1762 843d e7e0 0fbd a438 90bd 3f76 ee3d
00000220: 1b2b 4ebd ba96 65bd da03 febd a781 63bd
00000230: 6dc8 a9bc 4408 033c 731a 413e 13a8 f4bc
00000240: fab6 dfbd edf9 3abe 6637 323e 27a3 943b
00000250: 30fc a9bd 3173 5c3d 27aa 1dbe 7701 593c
00000260: 0e7a ce3d d121 453e 56c4 b2bd 3b49 213d
00000270: bc0e d93d 5de5 17be b542 ebbd 8189 3a3d
00000280: c31b fb3d a756 2d3c 69eb 353d b24f 89bd
00000290: 5910 323e e5dd 223e 5e79 35be e4cb d8bc
000002a0: f585 063e d146 3b3d 86b9 4d3c fae3 e8bd
000002b0: b51a 663c a38a d0ba 899b 3d3d 4d3b 1fbe
000002c0: 2a9e 5a3e 817f aabd 69cc 083e 7e53 66be
000002d0: 5590 a83d cc48 b03d bbcc 38bd f2b2 453d
000002e0: ef5b 443e 327f 83bc 5f76 253e 6be2 54bc
000002f0: 0d9e 27be 7047 183e e917 ca3d 1e9c 26be
00000300: c912 dbbd 8931 1b3d de09 073e a877 14be
00000310: e71e 5abd b92c 283d 7339 6fbd 765d 1c3d
00000320: 9cf9 02be 38ef bb3d 6d6b 90bd d025 95bc
00000330: 52d6 0dbe 1061 f7bd 08d5 873e 4d53 f1bd
00000340: 1aea 1b3e 1863 10be 366e 223e bb6f 9e3d
00000350: 1db9 dabd 6fd6 f2bd 8fca 31be 4833 323e
00000360: 3ffe 013d 2479 873e 60eb 81bd 1868 e83d
00000370: e316 163e 172b 0cbe 4f82 5e3e 28bc 8cbd
00000380: 5a17 f9bc dd9c 103d 45de 87bd 8cfc 03be
00000390: 981c fbbd c9ad 2bbe fac9 613c ef01 ddbc
000003a0: bf3b cfbb e912 9abd 68b4 133e b8a8 693d
000003b0: 9738 5f3c 65e5 273e 3229 07be 1993 273e
000003c0: def5 a5be 856b 523e 2a5a 60be 45b4 ff3d
000003d0: 5435 813e 2ea4 c0bd b136 a4bd b8b8 593e
000003e0: c90b b4bd 6d2c ecbb 4659 e9bd caab 9a3d
000003f0: 5257 58bc 2d86 f43b 2c8b c3bd 1636 133e

lstm.weight_hh_l1 f4 [128, 32]
0.005740936 0.08170352 0.14208479 -0.106277265 0.0076514455 0.07298194 -0.13187252 -0.04355463
0.028857036 0.14366926 0.13416618 -0.083275065 0.12509346 -0.14539035 0.08762052 -0.15178539
-0.02650851 -0.037304014 0.05803478 0.12835407 0.010998702 -0.13442412 -0.060848255 -0.038866024
-0.17185052 0.011132766 -0.12143808 -0.040346902 0.009026195 0.051256977 0.09110828 -0.096745744
0.2199078 0.109986395 -0.15563175 0.0028484552 -0.1718331 0.0852379 0.044977747 -0.03766878
0.14703523 -0.13247746 0.20799671 -0.23965937 0.009787481 -0.13562012 -0.037610307 0.071960896
0.12745884 0.057974547 -0.07262378 0.08104234 -0.052669767 0.074453734 -0.071817085 0.030891826
-0.07954709 0.150764 -0.10964734 -0.011407878 -0.060262028 -0.0821567 0.0062599974 -0.15268199
-0.035040136 0.18698923 -0.07579852 0.07763755 0.066419624 -0.003187732 -0.15667777 -0.10617049
0.09008248 -0.04267997 0.043949552 -0.13430695 0.00018748666 0.13991304 -0.18049815 -0.013541419
0.18302476 0.12548447 -0.03606774 -0.049603533 -0.037672173 -0.14041433 -0.0959531 -0.028306609
0.047348678 0.052865617 0.1412678 -0.02993496 0.039849903 0.008014657 0.001809674 -0.115983374
-0.028192904 0.16977017 0.026803447 -0.14676669 0.17622979 -0.029398806 0.15115732 -0.1706296
0.13708961 0.13808392 -0.04351482 -0.023985522 -0.06369231 -0.12444895 0.007487516 -0.13081804
0.0636781 -0.0733015 0.03587324 0.11007551 -0.08426973 0.018260261 -0.09862744 -0.14279903
0.10560317 0.13142337 -0.0997278 -0.24072613 0.06514645 -0.03595842 0.014457221 -0.07606471
0.038773347 0.016274886 -0.089243144 0.00028796622 -0.014982093 0.039520152 0.009898024 -0.1720401
0.10253989 0.1593292 0.2013381 -0.19449183 0.05438865 -0.12845403 0.09155559 -0.047193788
0.0024669594 -0.007515607 -0.07543344 0.1023499 -0.0833796 0.079392575 -0.13552314 -0.08003976
-0.124459505 -0.029598149 0.13196698 -0.06347525 0.16467951 0.037815355 -0.10218113 -0.14638561
0.11771844 -0.054983836 -0.06770941 -0.08748255 -0.029071098 0.11679291 0.12230791 0.09509222
-0.14699644 -0.096611835 0.063832134 0.1539521 -0.05023773 -0.18029898 -0.1242659 -0.109682165
0.0566247 -0.0011354812 0.107086435 0.18731481 0.08617966 0.08194882 -0.16777667 -0.16675809
-0.07168135 -0.11673295 -0.002562123 0.108655326 -0.07756424 0.15038598 -0.079510644 -0.06941452
-0.10746668 -0.027398625 -0.113896824 -0.040594276 0.06381277 0.042529546 -0.1578788 -0.032900173
0.14422081 0.0039270013 -0.106809884 0.10340834 0.077166155 0.08714514 -0.080592826 0.059935838
-0.0018608482 0.05899265 0.12586199 0.1276846 -0.16045986 0.0968673 -0.12380365 0.07958451
-0.119109936 -0.11441944 0.01582801 0.01836782 0.15890859 0.16019475 0.115827374 -0.091635495
-0.1245135 -0.065643 -0.115790255 0.121192604 0.03849541 0.10192958 -0.21263699 -0.119011775
-0.08286964 0.19184889 0.10589927 0.22247858 0.14485952 0.13640966 0.17020336 0.049308367
0.09916285 0.19249026 0.08870512 0.04677845 0.21469818 0.0505342 0.07041695 0.05499605
0.00021161415 -0.040250935 -0.05182838 0.07182238 -0.15754047 0.2043336 -0.09665071 -0.041346468
00000000: 761e bc3b 2d54 a73d ad7e 113e e5a7 d9bd
00000010: fab8 fa3b 8e77 953d 9709 07be 5766 32bd
00000020: 9765 ec3c 091e 133e dc62 093e 1e8c aabd
00000030: 8018 003e 35e1 14be 6372 b33d a16d 1bbe
00000040: 6028 d9bc 18cc 18bd e1b5 6d3d 406f 033e
00000050: e633 343c 7aa6 09be 053c 79bd fb31 1fbd
00000060: 95f9 2fbe 3466 363c 87b4 f8bd cb42 25bd
00000070: 9be2 133c d6f2 513d fa96 ba3d a222 c6bd
00000080: 832f 613e 8c40 e13d ee5d 1fbe 26ad 3a3b
00000090: 04f5 2fbe 3591 ae3d 963a 383d 944a 1abd
000000a0: 6790 163e 2ca8 07be 17fd 543e 4469 75be
000000b0: ac5b 203c 00e0 0abe 440d 1abd 3c60 933d
000000c0: 9284 023e b876 6d3d c7bb 94bd 87f9 a53d
000000d0: 41bc 57bd 337b 983d d614 93bd db10 fd3c
000000e0: 96e9 a2bd e161 1a3e c98e e0bd 1ce8 3abc
000000f0: 51d5 76bd c641 a8bd aa20 cd3b ab58 1cbe
00000100: 3f86 0fbd 1b7a 3f3e 413c 9bbd 7000 9f3d
00000110: 0307 883d 45e9 50bb 2370 20be ea6f d9bd
00000120: 2a7d b83d 31d1 2ebd 7204 343d c387 09be
00000130: 1198 4439 5d45 0f3e 82d4 38be d4dc 5dbc
00000140: d86a 3b3e 007f 003e c4bb 13bd 132d 4bbd
00000150: 234e 1abd c6c8 0fbe 0f83 c4bd 43e3 e7bc
00000160: b0f0 413d 9e89 583d 82a8 103e 293a f5bc
00000170: a739 233d e84f 033c 9532 ed3a b188 edbd
00000180: cef4 e6bc 3bd8 2d3e e792 db3c 024a 16be
00000190: 9575 343e c4d5 f0bc fcc8 1a3e 87b9 2ebe
000001a0: 3861 0c3e df65 0d3e 993c 32bd 497d c4bc
000001b0: 1d71 82bd 17df febd d659 f53b 2af5 05be
000001c0: aa69 823d 191f 96bd d2ef 123d 456f e13d
000001d0: 9c95 acbd 8b96 953c 2ffd c9bd e939 12be
000001e0: 7a46 d83d d993 063e 173e ccbd e980 76be
000001f0: 816b 853d 2349 13bd fbdd 6c3c d1c7 9bbd
00000200: cdd0 1e3d e952 853c 1cc5 b6bd 2cfa 9639
00000210: 7477 75bc e2df 213d 522b 223c 482b 30be
00000220: 6f00 d23d 3227 233e 932b 4e3e de28 47be
00000230: a2c6 5e3d 7489 03be 7f81 bb3d 464e 41bd
00000240: b6ac 213b 7b45 f6bb d97c 9abd d39c d13d
00000250: ecc2 aabd 9398 a23d 94c6 0abe e3eb a3bd
00000260: a0e4 febd d177 f2bc 5a22 073e 50ff 81bd
00000270: bfa1 283e 46e4 1a3d 5744 d1bd 1ce6 15be
00000280: 5e16 f13d bb36 61bd 3bab 8abd 0d2a b3bd
00000290: 8326 eebc 1f31 ef3d 927c fa3d b6bf c23d
000002a0: 3c86 16be 6ddc c5bd 6cba 823d 9fa5 1d3e
000002b0: 14c6 4dbd 4ca0 38be 1f7f febd 0ba1 e0bd
000002c0: 4def 673d 6dd4 94ba 2250 db3d 74cf 3f3e
000002d0: f67e b03d c8d4 a73d a6cd 2bbe a2c2 2abe
000002e0: accd 92bd af11 efbd 4ae9 27bb af86 de3d
000002f0: 00da 9ebd c8fe 193e 7ad6 a2bd 3329 8ebd
00000300: 7e17 dcbd 1573 e0bc bd42 e9bd 2f46 26bd
00000310: 45b0 823d 7633 2e3d fbaa 21be 55c2 06bd
00000320: 9fae 133e 13ae 803b 24bf dabd c0c7 d33d
00000330: 4a09 9e3d 2779 b23d da0d a5bd 487f 753d
00000340: b4e7 f3ba 47a2 713d f7e1 003e c0bf 023e
00000350: 974f 24be 5d62 c63d c58c fdbd 34fd a23d
00000360: e9ef f3bd bd54 eabd bea9 813c 1c78 963c
00000370: efb8 223e 180a 243e e736 ed3d 64ab bbbd
00000380: ef00 ffbd d66f 86bd 7123 edbd d433 f83d
00000390: 5dad 1d3d 75c0 d03d 83bd 59be 72bc f3bd
000003a0: 8fb7 a9bd 0974 443e b7e1 d83d 6dd1 633e
000003b0: 0e56 143e f9ae 0b3e ca49 2e3e 92f7 493d
000003c0: e415 cb3d 2b1c 453e 08ab b53d c39a 3f3d
000003d0: d7d9 5b3e f3fc 4e3d c336 903d 8a43 613d
000003e0: bee4 5d39 2ade 24bd ff49 54bd 9d17 933d
000003f0: 4a52 21be d43c 513e cff0 c5bd ea5a 29bd

lstm.bias_ih_l1 f4 [128]
-0.14399414 0.100315504 0.11236112 0.0495027 -0.12840176 0.104642 0.1877786 -0.10894832
0.03435741 -0.12740213 -0.16164641 -0.07480505 0.081432514 0.040417105 -0.004767749 -0.028999077
-0.014133625 0.079675026 -0.073717885 0.14961891 0.12637766 0.08299063 0.009655358 -0.19318657
0.17143083 0.0566133 0.06894838 -0.22355366 -0.13863085 -0.102916494 0.04609419 -0.08334704
0.04720569 0.0976404 -0.052499533 0.009352998 0.0135305915 -0.20241405 -0.07191004 -0.16384059
-0.052861657 -0.055406336 -0.08454993 -0.114179805 -0.12382769 -0.113416284 -0.11712777 -0.21381386
-0.09541539 -0.030838618 -0.040838584 0.14118846 -0.015576654 -0.1437319 -0.024924858 -0.18955389
0.11214311 0.047649372 -0.10902848 0.05285912 -0.17234996 -0.09297318 0.17704123 0.07716108
-0.061124265 0.044504337 0.11529837 -0.12692276 0.18739071 0.04495147 -0.02450153 -0.032547276
-0.052208614 -0.21895018 0.094499566 0.17488068 -0.19076589 -0.02211926 -0.033250086 -0.06983354
-0.11752835 0.08723475 0.11661485 -0.14533846 -0.0003346874 0.02221155 0.07877905 0.10913685
0.004962739 -0.011084022 0.19454372 -0.10732937 0.122283116 0.048204966 0.07279525 -0.17954816
-0.16804437 0.21360418 0.12108352 0.02108033 0.024491485 -0.07928869 -0.16565073 -0.08889323
-0.18300672 -0.08490806 0.005466563 -0.0900149 0.06774718 0.00047401647 -0.16449544 -0.2700484
0.08230981 -0.03578431 0.002216386 0.025386665 0.1298502 -0.01734357 -0.20074451 -0.268109
0.10956317 -0.18907627 -0.09364509 -0.1937309 -0.16063394 -0.105014876 0.13989106 -0.2626472
00000000: 3373 13be 3772 cd3d 961d e63d 58c3 4a3d
00000010: c07b 03be 8b4e d63d 0949 403e 4c20 dfbd
00000020: 5bba 0c3d b475 02be a386 25be 6433 99bd
00000030: 17c6 a63d 688c 253d c73a 9cbb 798f edbc
00000040: b890 67bc a92c a33d 67f9 96bd b335 193e
00000050: 2569 013e fef6 a93d 8231 1e3c b3d2 45be
00000060: 908b 2f3e 59e3 673d cf34 8d3d 40eb 64be
00000070: 3ff5 0dbe e2c5 d2bd 43cd 3c3d dab1 aabd
00000080: c15a 413d b1f7 c73d c009 57bd 513d 193c
00000090: 6aaf 5d3c a145 4fbe 9245 93bd d4c5 27be
000000a0: 7785 58bd c1f1 62bd 8428 adbd 1ad7 e9bd
000000b0: 5f99 fdbd cc46 e8bd afe0 efbd 05f2 5abe
000000c0: 2569 c3bd 45a1 fcbc 5c46 27bd b593 103e
000000d0: 3935 7fbc 752e 13be 372f ccbc 6a1a 42be
000000e0: 49ab e53d fd2b 433d 534a dfbd ce82 583d
000000f0: 827c 30be b968 bebd 4c4a 353e a106 9e3d
00000100: 705d 7abd 2e4a 363d 8d21 ec3d 0af8 01be
00000110: 5ae3 3f3e 081f 383d 6fb7 c8bc 4b50 05bd
00000120: b3d8 55bd 7a34 60be fd88 c13d ec13 333e
00000130: 2258 43be 7333 b5bc 3e31 08bd e304 8fbd
00000140: b4b2 f0bd 22a8 b23d c4d3 ee3d 9bd3 14be
00000150: fb78 afb9 fff4 b53c e956 a13d 2483 df3d
00000160: 799e a23b c299 35bc 7836 473e 80cf dbbd
00000170: 926f fa3d 9272 453d ad15 953d 79db 37be
00000180: d313 2cbe 0ebb 5a3e a3fa f73d a8b0 ac3c
00000190: 5ea2 c83c 1c62 a2bd 58a0 29be a70d b6bd
000001a0: 1d66 3bbe 47e4 adbd db20 b33b bb59 b8bd
000001b0: 09bf 8a3d 6a85 f839 7e71 28be c943 8abe
000001c0: 0c92 a83d 9292 12bd c940 113b b2f7 cf3c
000001d0: 73f7 043e 1a14 8ebc f88f 4dbe 9545 89be
000001e0: a862 e03d 369d 41be ffc8 bfbd 6561 46be
000001f0: 397d 24be 0a12 d7bd 9a3f 0f3e b279 86be

lstm.bias_hh_l1 f4 [128]
-0.035494104 0.08575859 -0.04603673 0.02802955 -0.018794829 -0.01620296 -0.14544654 -0.12735955
-0.093452625 0.20814058 -0.18263473 0.034686945 0.022720475 -0.0061348216 -0.2549891 -0.010220353
-0.12575871 -0.1315442 0.03493733 0.10521451 -0.08457658 0.12075205 -0.14648788 -0.13018845
-0.062098444 -0.24545553 0.03415231 -0.1477285 -0.056324244 -0.17587905 0.16939346 -0.13121626
0.085104555 0.19600426 0.048038114 0.08916962 -0.10225103 -0.040946934 -0.10641696 -0.08009072
-0.005685986 -0.1311524 0.03976318 -0.007199679 0.13025008 0.13128917 -0.06993475 -0.032655828
0.030922167 -0.18640347 -0.19208948 0.10921651 -0.19030635 -0.09578265 -0.18423901 -0.103352845
0.15677276 -0.02761993 -0.022056792 -0.11356854 0.09762446 0.08174992 0.14030552 0.05759903
0.030960215 0.21161453 -0.19519104 -0.18867944 -0.10185138 -0.02207342 0.19390059 0.004107442
-0.0064034215 -0.19552559 -0.034655627 -0.036116097 -0.062375505 0.09586967 0.048878018 0.04219042
0.06710071 -0.13214847 -0.13239136 -0.1849567 0.03862454 -0.04210675 -0.0748518 -0.043694925
0.077376775 0.091055945 0.19202054 0.038890682 -0.1448557 -0.007157937 0.14250426 0.039728552
0.002367314 0.041474164 -0.11140671 0.03209418 0.13915832 -0.13645385 0.086524926 -0.091082625
-0.09861589 0.20088908 0.096037194 -0.19171356 0.15172933 0.06269626 -0.20342153 0.07057569
-0.026293643 -0.08744061 -0.01604303 0.1959164 -0.019903265 0.03985623 -0.028486615 -0.2547199
0.13991785 -0.19213289 0.027577518 -0.13962391 -0.20413397 0.09663887 -0.076210655 0.04141486
00000000: 4462 11bd 33a2 af3d 0391 3cbd 3a9e e53c
00000010: 9df7 99bc 12bc 84bc f0ef 14be 8b6a 02be
00000020: 1764 bfbd ce22 553e 9904 3bbe e613 0e3d
00000030: 4a20 ba3c 9d06 c9bb ee8d 82be 4473 27bc
00000040: e4c6 00be 86b3 06be 721a 0f3d b47a d73d
00000050: 7c36 adbd da4c f73d eb00 16be 1f50 05be
00000060: f05a 7ebd b258 7bbe 4be3 0b3d 2446 17be
00000070: 40b4 66bd a319 34be 7b75 2d3e 8e5d 06be
00000080: 4c4b ae3d 57b5 483e 9dc3 443d 909e b63d
00000090: fd68 d1bd f9b7 27bd 23f1 d9bd 9a06 a4bd
000000a0: 8251 babb d14c 06be b7de 223d 49eb ebbb
000000b0: 4760 053e ab70 063e f339 8fbd 1ec2 05bd
000000c0: 7c50 fd3c 8de0 3ebe 1bb3 44be e8ac df3d
000000d0: abdf 42be b229 c4bd 27a9 3cbe a8aa d3bd
000000e0: 0a89 203e 3143 e2bc 72b0 b4bc 9f96 e8bd
000000f0: 55ef c73d 816c a73d 40ac 0f3e f6ec 6b3d
00000100: 47a0 fd3c 7bb1 583e 29e0 47be 2f35 41be
00000110: 7597 d0bd 51d3 b4bc e08d 463e b997 863b
00000120: cbd3 d1bb dc37 48be 0ff3 0dbd 79ee 13bd
00000130: 757d 7fbd 5157 c43d 5134 483d ddcf 2c3d
00000140: 196c 893d ee51 07be 9a91 07be 4a65 3dbe
00000150: c434 1e3d 2178 2cbd e74b 99bd 73f9 32bd
00000160: b777 9e3d 8a7b ba3d 08a1 443e d64b 1f3d
00000170: 0d55 14be 218d eabb a3ec 113e 68ba 223d
00000180: f024 1b3b d0e0 293d 3429 e4bd 3075 033d
00000190: 857f 0e3e 8fba 0bbe fb33 b13d 8789 babd
000001a0: 21f7 c9bd deb5 4d3e 26af c43d 8f50 44be
000001b0: ef5e 1b3e e666 803d bc4d 50be fd89 903d
000001c0: c465 d7bc 1014 b3bd ac6c 83bc 4f9e 483e
000001d0: 2c0c a3bc 4940 233d c35c e9bc a66a 82be
000001e0: a046 0f3e 7cbe 44be 3fea e13c 92f9 0ebe
000001f0: 7f08 51be 9aea c53d 5514 9cbd a1a2 293d

layer1.weight f4 [1, 32]
0.09328591 -0.18028119 0.18265224 0.20055072 -0.1299181 -0.06838472 -0.0776055 -0.15980498
0.112706184 0.22188413 0.13539462 -0.065520994 0.21894972 -0.089414075 0.0089629395 -0.05347169
0.13831629 0.09558688 0.0793757 0.1086091 0.03939046 -0.12794425 -0.1217053 -0.015452179
-0.10249047 0.06286851 -0.15003341 -0.1180464 0.047775507 -0.069631584 -0.13658747 -0.061790846
00000000: af0c bf3d a29b 38be 3009 3b3e 2b5d 4d3e
00000010: 4009 05be 4a0d 8cbd a2ef 9ebd eba3 23be
00000020: 80d2 e63d 9835 633e e3a4 0a3e df2f 86bd
00000030: 5b34 603e ba1e b7bd 4bd9 123c 2105 5bbd
00000040: c9a2 0d3e 0ec3 c33d ba8f a23d 736e de3d
00000050: e457 213d d103 03be a140 f9bd 232b 7dbc
00000060: 86e6 d1bd 35c1 803d 5ca2 19be 50c2 f1bd
00000070: 40b0 433d 019b 8ebd 96dd 0bbe 6618 7dbd
