Letter Classification/LetterIdentifyModel.pt (torch, 299265 bytes, 12 tensors)

conv1.weight f4 [16, 1, 5, 5]
00000000: 6ff5 f13d cfce 043e 02e6 973d 90f9 e43d
00000010: 6c0d af3d 9b45 073e 816c 8e3d aaf9 ff3d
00000020: 11bb 253e 5861 4e3e 35a9 633c 7055 933d
00000030: 38a3 bcbc 77eb be3c b8fb d9bb 17a4 67be
00000040: 1029 4b3d f505 f93d cc89 3fbd 7d67 d33d
00000050: cfa2 bd3c 1b3e 57be fcec 6dbd caa5 e4bd
00000060: 1318 163e 5271 823d 3432 383e 0d58 13be
00000070: 739a 013d 6617 503d d517 d03d 6723 02bd
00000080: 85c9 4d3e 7055 be3d bc0c 0fbe b6e0 01bc
00000090: 1b6a ee3d 923e 03bd b219 d93d e0b0 63bc
000000a0: 2f1f bbbd f80c 0f3e ef20 04be 57c6 743e
000000b0: 471e 1ebe f8b4 fabb ea60 30be eaf6 29bc
000000c0: 9609 5f3e beee 943c 5dc7 363e aeda 9d3d
000000d0: cf41 1f3e e58f 2a3e a455 423e 6919 c13d
000000e0: 1d2e babd 9954 22be d5a1 e6bd bb14 03bd
000000f0: 77bf 39be 3ece afbd 84dc 0dbd 59e2 38be
00000100: ee49 353e 88e5 293e 8f49 553d 939f d13d
00000110: 0a93 39bc 9fda 0e3e cec3 9b3d 8da2 ac3c
00000120: 15c9 973d 0df8 38bd 1fbb 21bd 76a8 0b3d
00000130: 95a8 37be ebb4 11bd 3584 08be 0709 0e3e
00000140: 6d05 ab3d 8bcc 293d 10f3 87be 11b8 56be
00000150: 5694 febd f701 943d 1bd5 b2bc 98fe 223c
00000160: 3592 8cbd 681c 74bd 3dcf 91bd a548 3d3e
00000170: 96b0 c13d 3352 4a3e 6289 efbd 3a7d ab3d
00000180: d0e4 693e 54bd 99bd d5db 803e db83 7e3c
00000190: c70b 903d 7f27 653d c43a 32be 6dd7 023d
000001a0: e4ef 953c 1b8a 063e 0d32 b0bd 5825 1dbd
000001b0: 04ea 7abd 464c 9e3d 60cc d6bc f763 823e
000001c0: bef9 843e f49f 5f3e 7026 863d 08db 183d
000001d0: 4156 70bd 4203 ccbd 9ad0 58bd 3314 9e3d
000001e0: 3dab 67be 40f8 12be 38ef 54be 54cb 123d
000001f0: 8b27 7fbd a544 debd 2246 9b3d fe48 393e
00000200: 7265 463e 34c4 043d 6a6b f83d 81cb 82bd
00000210: 1e36 50bd 6383 9ebc 997a ca3d 6935 98be
00000220: 3399 fb3d 6a81 eb3c 268d b13c 13f1 873e
00000230: b5b9 f6bd b7af a3be 7950 32be 3927 313d
00000240: ad62 02bd b644 d9bd 4707 933d 907a 8abe
00000250: abec 92be 380b 9bbe 098b f9bd 79f0 08be
00000260: 285d 3f3d a0c8 38be aeb6 a43d 5dcf 233e
00000270: dae2 b53d fb3e 84bd 42c2 b53d 710b f3bd
00000280: f6a8 193e d9ea db3d 3935 663b 5986 973d
00000290: 85da 3b3e a9a4 a7bd b53d dd3d f537 253e
000002a0: d39e 1e3e 9e6c f2bd 68b7 db3d d36d 2bbe
000002b0: 8fc8 f8bc 00b1 bf3d 4b68 253e 16bb 973d
000002c0: 4752 b1bd beb9 1c3e 8c64 e3bc 3122 dcbd
000002d0: 5f11 823d ea9e 0a3c 1bd1 e8bc e77f 453e
000002e0: 0149 76bd 920a 1e3e 44c7 013e 1983 98bd
000002f0: a618 273e 17da e4bd 325d 643c 08f3 8e3d
00000300: e97f e5bc 988a 1cbe 7974 61bc 6d1a 4e3e
00000310: 9e96 0a3d 4ec1 d43d 65e4 12be bf9a 20bc
00000320: e5a9 f6bd 0a0c c2bd f5a3 313e e94d 9dbd
00000330: 7e7f 973d 9b50 77bd d311 e23d c57e 493e
00000340: fb91 9a3c 575d 01bd 962a 2cbe fa9e 3f3e
00000350: f888 bd3d 0940 54bd 91f2 28be cbc5 fe3d
00000360: abd8 523e 7379 9dbb e787 16be 584d 243c
00000370: 0e33 d13d a7e8 3f3e 9120 333e 3768 60be
00000380: 8e47 0ebe b055 adbd 8d49 0cbe 7227 eabd
00000390: 1cbd f63d d924 0d3e 72b4 1bbe 018d 91bd
000003a0: 7dfe 8d3a b11f 273e a77b 253e 552d 463e
000003b0: 06d3 653d c546 193e ce58 9fbd 9e60 d5bd
000003c0: feb7 f93d 2a7a 273e a445 d0bd 07f7 2a3e
000003d0: ec28 2dbd f670 98bc 8b74 dabd 3c10 d43d
000003e0: 3bf4 31be 4029 e7bb ba0b 063e a633 a73d
000003f0: 2454 473e ab82 1f3d ee3a 2c3d dc81 eb3d
0.11814391 0.12969516 0.074169174 0.11180413 0.08547482 0.13210146 0.06954289 0.124987915
0.16184641 0.20154321 0.013895323 0.0719403 -0.023027048 0.023305638 -0.0066523217 -0.22621189
0.049599707 0.12159339 -0.046762273 0.10322473 0.023148922 -0.21019785 -0.058087334 -0.11164434
0.14657621 0.063692704 0.17987901 -0.14389057 0.031641435 0.050803564 0.101607956 -0.031772044
0.20096405 0.0929364 -0.13969702 -0.00792711 0.11641332 -0.032042094 0.10600604 -0.013897151
-0.09136807 0.13969791 -0.12903188 0.23903786 -0.15441237 -0.0076509677 -0.1722447 -0.01037381
0.21781 0.018180247 0.17849489 0.077077255 0.15552448 0.16656454 0.18977982 0.09428675
-0.09090827 -0.15852584 -0.11261336 -0.032002192 -0.18139444 -0.085842595 -0.03463413 -0.18055095
0.17703983 0.16591465 0.052072104 0.102355145 -0.011326561 0.13950585 0.07605706 0.021073604
0.074114 -0.045158435 -0.039485093 0.034096204 -0.17935403 -0.035572927 -0.13331683 0.13870631
0.08350644 0.041454833 -0.2655263 -0.20968653 -0.124306366 0.07226937 -0.021830132 0.009948395
-0.06863824 -0.059597403 -0.07119606 0.18484743 0.09457509 0.19757919 -0.116961256 0.083734944
0.22841191 -0.075068146 0.2516772 0.0155343665 0.07033496 0.05594587 -0.1740523 0.031943727
0.018302865 0.1313862 -0.086032964 -0.038365692 -0.06125833 0.07729392 -0.0262205 0.25466892
0.25971788 0.21838361 0.065503 0.03731826 -0.058676008 -0.09961559 -0.052933313 0.077186964
-0.22623916 -0.14352512 -0.2079438 0.03583844 -0.06229357 -0.10852937 0.07581736 0.1809425
0.19374636 0.032413676 0.121298626 -0.063864715 -0.05083286 -0.01934976 0.09886665 -0.2972825
0.1228508 0.028748233 0.02167375 0.26551113 -0.120471396 -0.31969997 -0.1741351 0.043250296
-0.031832386 -0.10608809 0.071791224 -0.27046633 -0.28696188 -0.30281997 -0.12184722 -0.13372983
0.0467197 -0.18045282 0.08042656 0.15997072 0.08881159 -0.06457325 0.08874942 -0.11867417
0.1500586 0.10738153 0.0035126938 0.07398672 0.18345077 -0.08185703 0.10802785 0.16134627
0.15490274 -0.11837123 0.10728341 -0.16741113 -0.030369071 0.09359932 0.16153066 0.07408731
-0.08658271 0.1530523 -0.027757905 -0.10748709 0.063509695 0.00846074 -0.028420022 0.19287072
-0.060128216 0.1543372 0.1267367 -0.0744688 0.16317996 -0.1117441 0.013938235 0.06979948
-0.028015094 -0.15287244 -0.013760679 0.20127268 0.033835046 0.103884324 -0.14344938 -0.009802519
-0.120441236 -0.094749525 0.17347701 -0.07680876 0.07397364 -0.060379606 0.11038556 0.19677265
0.018868437 -0.031583156 -0.1681312 0.18712988 0.0925464 -0.05181888 -0.16498782 0.1244007
0.20590465 -0.0048057376 -0.1470028 0.010028206 0.10214816 0.18741094 0.17492892 -0.21914755
-0.13894483 -0.08463609 -0.13699932 -0.11433305 0.120477885 0.13783588 -0.15205553 -0.071069725
0.001083329 0.16320683 0.16160451 0.1935323 0.05610945 0.14968403 -0.0778061 -0.10418819
0.12193297 0.16355196 -0.10169533 0.16695796 -0.042275354 -0.018608551 -0.1066676 0.10354659
-0.17378323 -0.007054478 0.13090411 0.08164148 0.19465691 0.038942974 0.042048387 0.11499378

conv1.bias f4 [16]
00000000: ca4d f33d 8f5a aa3d b177 59be af5d 1d3e
00000010: 45aa e03c 71b0 703d d895 113e 1f4f 1d3e
00000020: 803c 22be 6ddb c03d a554 07bd 76ff b93d
00000030: ea89 d83d 29e2 f2b9 f191 12b8 a14a 28be
0.118800715 0.08318054 -0.21237065 0.15367769 0.02742494 0.058762018 0.14217317 0.15362214
-0.15843391 0.09416852 -0.033039708 0.090819284 0.1057318 -0.0004632634 -3.494503e-05 -0.16434719

conv2.weight f4 [32, 16, 5, 5]
00000000: d399 8a3c 7760 a8bc d761 053d 9082 3dbc
00000010: c373 0c3d 8f8a cb3c d9e2 933b 35d5 e13c
00000020: 4c5d 15bd d537 25bd 93f6 b83c faa9 a8bc
00000030: 6c2f 47bd c715 a9bc b533 e1bc 67db 0abc
00000040: 9f02 c1bc 8561 1c3d 702a 95bc 46ab ad3b
00000050: f9ad 203d 4304 ce3b 7b26 213d 0b7a 4c3d
00000060: 0523 9f3b 4587 b0bc 2890 9dbc 19cc 2d3d
00000070: 564e f23c 4205 5e3d f1f4 e6bc 5691 4d3c
00000080: a469 323d 8ca5 b1bc d4cf eb3c 90a8 27bc
00000090: 98e0 82bd 8a6d 92bd 3fdc 49bd 7a6d 2ebd
000000a0: 7060 83bc a9bf 2cbd 7cf8 453b 52e2 ecbc
000000b0: 58b7 ed3c 7e9c 81bb c269 03bd f1fb 133c
000000c0: ed89 dfbc f059 2d3c b1f0 3d3c 8e16 ef3c
000000d0: 5c26 49bc 3f15 87bc f4dd e53c 91b4 933a
000000e0: 48d9 f7bb 35d8 29bc 6a69 4cbb 9c0b 6a3d
000000f0: 2703 2cbd 1663 b13b 75f5 2abd 38f7 88bb
00000100: 346c 94bb ec4c 403c 8dec fdbb e222 52bc
00000110: 76de 023d 03a6 a0bc 6a62 cf3c 4ce4 6f3d
00000120: ef5f b1bc 1523 0fbd b8ba 20bd c9b5 56bd
00000130: b8a1 023d 0c54 4b3d 3b45 d83c 5950 6fbc
00000140: e14d c63c 3a08 8d3d d6a1 873d b33d 0b3d
00000150: 5108 2ebd 4d3e 46bd af03 833c ac09 00bd
00000160: 1348 4a3d 7eb4 54b9 a91d b7bb 734b 0b3d
00000170: 7b65 273d 8653 583d b298 083d f782 15bd
00000180: 4613 03bc bf73 653b 2873 a9bd 0e31 a5bd
00000190: 01bb 853d a8a7 db3b 12e5 903d f216 013d
000001a0: 1b46 ca3b d833 6fbc 433f f1bb f65a c9bc
000001b0: 03a7 f73c b85e 18bd fd96 82bc 2a13 04bd
000001c0: edb7 78bd da23 5dbd 961d 39bd f0c4 c73c
000001d0: df6f cbba ca7c 5dba f5a9 963c c3bd 27bd
000001e0: c2c2 253d b864 593d d954 2fbc 474e 893c
000001f0: da02 ea3c 26b9 bd3d 1785 cf3d 8caf 393d
00000200: d783 873d 7c85 103d 60df 573d d7f2 c13d
00000210: ad61 9c3d 4579 1ebd 8838 12bd 7079 cd3b
00000220: 1cbf 203d 5910 01bc 65fb 90bd 4f07 b7bd
00000230: db0c 10bd 87a5 f53c a733 eb3d f28c b73d
00000240: 624e dfba c8a0 683d 5f35 453d 8564 abbb
00000250: 3ad3 e8bc 4d0b aabd ec3d 2e3d 85d5 0d3c
00000260: 8926 fb3c 9590 2cbd b3db c03c d345 8ebb
00000270: 0b67 1f3c bffe d0bb c824 00bc 3b67 f7bc
00000280: 4cfe 673c aced d33b 8d28 3ebc 798d 12bd
00000290: eea7 8ebc 3e94 c03c 4fa8 b63c 003d a3bc
000002a0: fc7e 8c3d 8bc0 603b 4e1d 07bc b2ec 6e3d
000002b0: 054b d5bc 562b 383d 454d 8abd a4b0 27bd
000002c0: fb68 7c3c d5f8 1b3c aa0a 32bd bdbb 7c3a
000002d0: be8b 8d3c 64ab 07bd da9a c6bc 50de 2abd
000002e0: faa6 6bbd c68e 893c 3c59 513a 99e5 f33c
000002f0: 4cc3 ecbc af1a 163d a0e7 bf3c 959b 93bc
00000300: 174f dd3b 093d 633d 062f 543c b000 26bd
00000310: 3a94 2dbd 5711 b43b cd30 a33c 0626 2f3c
00000320: d405 d8ba dbac 13bd d112 77bd ef75 7b3b
00000330: f27c ecbb 2fa0 3e3a 9ec7 c93b c765 5abc
00000340: 58ac 60bc 30a1 133d bcf7 81bc 86cf 98bc
00000350: 497a 7d3c 3add 033b 0925 683d 5f1d 913b
00000360: 06ad dfbc e35e fabc fa61 4839 22bf 90bc
00000370: ba9f 65bd 0b80 52bc e340 20bc ee13 0fbd
00000380: 0ae0 23bd 1051 bc3c 1967 513c 4fdf b0ba
00000390: 110c f03c 288c 343d 01c2 31bb 4def 1abd
000003a0: 8b37 353d 016e e8bc 8a4b ef3c 239c d8bc
000003b0: ce1a eebc 5656 12bd af26 1cbd 31ea bc3c
000003c0: e94b 58bc ae0a b13c 5a1e 413d 2b2d fe3b
000003d0: fb2b 913a fcee b1bb 1928 603d 1c38 13bd
000003e0: e175 25bc 48d1 19bd c2f1 2bbd e276 313d
000003f0: acf4 233c 0f77 693c 0c22 73bc ec0e cabc
0.016919052 -0.02055381 0.03256401 -0.011566773 0.034290086 0.024846343 0.0045131263 0.027567485
-0.036465928 -0.04033645 0.022578513 -0.020588864 -0.04862921 -0.020640267 -0.027490476 -0.008475161
-0.02356082 0.03817894 -0.018208712 0.0052999584 0.039228413 0.006287129 0.03934334 0.049921077
0.0048564696 -0.021548877 -0.019233778 0.04243097 0.02957837 0.054204233 -0.028192969 0.012546858
0.043557778 -0.021685384 0.028785624 -0.0102330595 -0.06390494 -0.07149799 -0.04928231 -0.042584874
-0.016037196 -0.04217497 0.0030207923 -0.028916512 0.02901809 -0.003955423 -0.03208328 0.0090322355
-0.027287448 0.010580525 0.01159303 0.02918556 -0.012277212 -0.016489623 0.028059937 0.0011269023
-0.0075637437 -0.010366489 -0.0031190761 0.057139978 -0.041995194 0.0054134233 -0.041737992 -0.0041798614
-0.0045295004 0.01173709 -0.0077491463 -0.0128256995 0.031950437 -0.01961041 0.025315482 0.05856733
-0.02165219 -0.034945566 -0.03924057 -0.052419458 0.03189251 0.0496407 0.0264002 -0.014606559
0.024207057 0.06886335 0.06622665 0.033994388 -0.0424884 -0.04839926 0.015992967 -0.031259224
0.04938514 -0.00020285134 -0.0055882526 0.0340075 0.040868264 0.05281403 0.033348747 -0.03650185
-0.008000201 0.0035011617 -0.082739174 -0.08065997 0.06529809 0.006703336 0.07074942 0.031516023
0.006172908 -0.014599763 -0.0073622777 -0.024579506 0.030231005 -0.037199706 -0.015941137 -0.03224484
-0.06072228 -0.05398927 -0.04519423 0.0243859 -0.0015521011 -0.0008449076 0.018391589 -0.040952455
0.04046894 0.05307457 -0.010701382 0.016760958 0.028565813 0.0926383 0.10132807 0.04533343
0.06616943 0.03528355 0.05270326 0.09470146 0.07635818 -0.03868987 -0.035698444 0.00627058
0.039244756 -0.007877433 -0.070792 -0.08936941 -0.03516851 0.029986156 0.11484461 0.0896243
-0.001703691 0.056793958 0.0481466 -0.0052304887 -0.028421033 -0.08302937 0.042539522 0.008656864
0.030658023 -0.04213007 0.02354226 -0.00434182 0.009729157 -0.0063780244 -0.007821269 -0.030200591
0.01415975 0.0064675417 -0.011606348 -0.03577945 -0.01741406 0.023508187 0.022297053 -0.019926548
0.06860158 0.0034294452 -0.008246733 0.0583312 -0.026036749 0.044963203 -0.06753019 -0.040939942
0.015405889 0.009519775 -0.0434672 0.00096410123 0.017278548 -0.033122435 -0.02424376 -0.04171592
-0.057532288 0.016791712 0.0007986014 0.029772567 -0.028901719 0.03664654 0.023425877 -0.018018523
0.006753813 0.05547813 0.012950664 -0.040528 -0.042377688 0.005495231 0.019920731 0.010690218
-0.0016481229 -0.03605352 -0.06032068 0.0038369854 -0.007217043 0.0007271794 0.0061578294 -0.01332993
-0.013712965 0.036042392 -0.0158652 -0.018653642 0.01547105 0.0020120875 0.056675944 0.00442855
-0.027304184 -0.030562824 0.00019109985 -0.017669264 -0.05606053 -0.012847911 -0.009781095 -0.034931116
-0.040008582 0.022987872 0.012780928 -0.0013494286 0.029302629 0.044078976 -0.0027123692 -0.03782587
0.044242423 -0.028372766 0.029210825 -0.02644164 -0.029065516 -0.035726868 -0.03812283 0.02306089
-0.013201692 0.021611538 0.047148086 0.0077568493 0.0011075729 -0.0054301005 0.05472574 -0.035942182
-0.010098905 -0.0375531 -0.041978605 0.043326266 0.010007065 0.014249577 -0.01483966 -0.024665318

conv2.bias f4 [32]
00000000: f17c 113d 29e0 56bd 9e7e ec3a 44bd 333b
00000010: 59d9 d7b8 e986 c9bc 90ca 80bb a113 1cbb
00000020: 9893 0ebd ed76 ecbc b931 9ebb 3241 f6bc
00000030: c0df 1e3d 0301 173a b894 27bd eee9 02bd
00000040: 1fbd 193d 7a3e 713d 23ac 2d3d 05f5 273d
00000050: 4666 6dbb a8c4 4cbd 690a 14bc b769 b93a
00000060: 8206 63bd 10f1 173b 533a eb3c dc2f 2d3d
00000070: 12b9 37bd 8af4 74bc e879 063c f50c e8bc
0.035519544 -0.05245987 0.0018043106 0.0027426044 -0.00010292483 -0.024600463 -0.0039303973 -0.002381541
-0.034808725 -0.028865302 -0.0048277047 -0.030060384 0.038787603 0.00057603436 -0.040913314 -0.031961374
0.037533876 0.058897473 0.04240049 0.041005153 -0.003622429 -0.049992234 -0.009035685 0.0014145885
-0.05542613 0.0023184456 0.028714335 0.04228197 -0.04485423 -0.014950881 0.008207776 -0.02832649

ll1.weight f4 [150, 288]
00000000: 17c2 a6bc 4a4b 21bd 54d9 cd39 2484 103d
00000010: 6f2b 40bd 63ac bfbb 0bd3 c2bb 65eb 24bc
00000020: e5ce bd3b 149f e5bc 98ab 343d 1008 51bd
00000030: 2b39 9ebc 6018 403d d411 943b 0b41 5b3c
00000040: 3f07 483d e467 a5bc 6e7d 31bd 2dab 59bd
00000050: 8a35 0f3d 097a a3bb e68f b93b be7a 3f3d
00000060: d6f9 19bd 4942 17bd 3d14 e3bc 23e9 203d
00000070: 9245 8cbc 8896 3f3d a247 3e3c 3be1 ea3c
00000080: 6ba5 293d 88be 93bc ddb4 80bd 6b7a 673d
00000090: 91ec 78bd 76e7 62bd 0953 9fbc 1764 44ba
000000a0: e951 47bb df70 67bb d331 083d a41b 85bd
000000b0: 2044 cb3c a966 e6bb 60c4 0d3d a2fa 48bc
000000c0: ec63 77bd 156c e4bc 042b 273d 78f3 4ebd
000000d0: 0c2a 29bd c4aa 1ebd 65c8 afbb f86b 1d3d
000000e0: 3918 b23c 7e42 efbb 38e4 f33c b850 1cbd
000000f0: 86c9 f2bc a014 593c 2e21 74bd c802 6fbd
00000100: cd72 0abd d031 513d fe6d debc 8180 ccbc
00000110: 49ea ad3c 514f c3bc 0f73 e63c a9b0 56bd
00000120: b387 05bb 19bd 1a3d b6b3 1cbd 2d01 863c
00000130: d192 bc3c 8c35 833c e50b 7bbd 26b1 50bc
00000140: 31d5 58bd 9d94 e7bc 5f93 db3c 59eb 3abd
00000150: e963 13bd e87c 56bc 9c1e 783b 046c 283d
00000160: bd28 75bd d324 4bbd 5b18 b03c 3777 583c
00000170: c001 393c 61ea 39bd 8097 88bb 898a ba3c
00000180: f2f7 3abd 70f3 7dbc d899 7cbd a031 35bd
00000190: 141c fabc 36b2 703b 2de0 1dbc e7f3 843c
000001a0: fb56 5ebd 5327 0fbd f132 3c3d a605 493d
000001b0: 98ce d2bc 4789 283d 1092 29bd 1cf0 7fbc
000001c0: 9668 0f3c 2178 6bbd 555b cfbc df61 f13c
000001d0: ac09 37bd 4723 7ebd c676 4abd 6eef 883c
000001e0: 4ce7 25bd bdd8 8fbb 6e2e 4d3a 5cea a73c
000001f0: b982 213b 68cb 42bd b7ed 953c b613 cabc
00000200: 4cae 60bd 0bb2 5b3c d2b5 6dbd 2b1e 6dbd
00000210: 0723 12bd b7ce 543d e9e9 b2ba 82e5 3bbd
00000220: 197b 51bb 43a6 c33c 56ee 853c 92dc d0bb
00000230: 6664 eaba 8ae1 fbbb 1a94 453d a978 123d
00000240: 4cdb 61bc a80f 1e3c c881 233c c365 283d
00000250: 7e23 3c3d 5d83 dcbb 0059 873c 9b25 ffbc
00000260: ce8f 0ebd d955 b3bc 1c9b 4c3c 63d0 4dbd
00000270: a9f0 803c 2f3e 5cbd 05a3 1b3d ee8f 943c
00000280: aff8 293a 549c 15bd 0cf7 043d 4300 863b
00000290: b3ad b03c ac51 08bd 5541 88bd 86d9 61bd
000002a0: 6f83 043c 1afc 1d3d d3f1 6c3a e995 35bb
000002b0: f6d3 3b3d ea29 083d b918 14bd 8661 27bc
000002c0: 2671 5f3b 1363 2abd aad6 fe3c 4d9e cd3c
000002d0: 0485 80bc 9a53 513d d6cf 1dbc 1786 a33c
000002e0: 8ed5 55bc 5add 31bc 7d32 72bc a6fd 633c
000002f0: b89a e83c 7361 253d c7e1 83bc e635 063d
00000300: 0d4e 7fbd 58a9 72bb 0929 c8bc c26f 213d
00000310: bfff 09bb 3e50 d03c 9b0e 8a3b 610e 773c
00000320: c6f3 353d 43b0 ad3c 2308 b63c 7c78 663d
00000330: 5ac8 afbb 0609 3bbd f789 85bc ff2f 903b
00000340: 629d 63bd 6e48 0cbd 946c 35bc 0da5 23bd
00000350: fe97 76bc 2c1d 1fbd 7827 513c bb5e 203d
00000360: d984 05bd 2949 c6bc ca8d 273d 1836 b33a
00000370: 9301 983c 52a1 733d 8dfb 303d 4d37 cfbc
00000380: 1563 a9bc 25c7 efbc ad40 49bd 221c 493d
00000390: e40a 6cbd 85b1 433d 7ad2 b6bc 4151 a7bc
000003a0: 70b7 bebc b5d1 9abc 93ea 263c a77c 7b3c
000003b0: 7760 fe3c 543f c2bc 2d88 f33c 8fca 32bd
000003c0: 8b86 82bc eb55 dabc 29f1 e53b 52cc 77bd
000003d0: 8d72 2e3d 51b1 0ebd bddb 91ba 0ecb 0d3c
000003e0: c771 c63c 85e9 56bd df97 ee3b 5d7a 3abd
000003f0: 0ff8 85bd 4ef3 993c 8359 c4b9 d9a5 5abc
-0.020356221 -0.039378442 0.0003926257 0.03528227 -0.04691642 -0.0058494075 -0.0059455684 -0.010065888
0.005792486 -0.028029956 0.044108957 -0.05103308 -0.01931437 0.046898246 0.004518727 0.013382207
0.048835035 -0.02019114 -0.04333251 -0.05314176 0.03496317 -0.004988913 0.005662906 0.046747915
-0.037591778 -0.03692845 -0.027719611 0.039284837 -0.017123017 0.046774417 0.011613758 0.028671851
0.04141752 -0.018035188 -0.06284497 0.05651323 -0.060772482 -0.05539652 -0.019448774 -0.0007491721
-0.0030413812 -0.003531508 0.03325064 -0.06499413 0.024812758 -0.007031281 0.034611106 -0.012266787
-0.060398027 -0.027883569 0.040812507 -0.05052516 -0.041299865 -0.038737074 -0.005364465 0.038433045
0.021740066 -0.0073016277 0.02977191 -0.038162917 -0.02963711 0.013249546 -0.059601955 -0.05835226
-0.03380089 0.051072896 -0.027152058 -0.02496362 0.02122988 -0.023841532 0.028131036 -0.05241457
-0.0020375072 0.037777994 -0.038257323 0.016357983 0.023019226 0.016016744 -0.06129064 -0.012737548
-0.05293769 -0.028269107 0.02680367 -0.0456346 -0.035983954 -0.013091303 0.0037860041 0.041118637
-0.059853304 -0.049595665 0.021495989 0.013212017 0.011291921 -0.045389537 -0.004168451 0.022771137
-0.045646615 -0.015499935 -0.061670154 -0.04423678 -0.030530967 0.0036727316 -0.009635967 0.016229583
-0.05428217 -0.034949612 0.04594702 0.049077652 -0.025733277 0.041146543 -0.04139906 -0.015621211
0.008752963 -0.05748761 -0.025312105 0.029465614 -0.04468696 -0.06204536 -0.049429677 0.016715731
-0.040503785 -0.004389851 0.0007827048 0.020497493 0.0024644567 -0.047557265 0.018301828 -0.024667602
-0.054853722 0.013409148 -0.058034725 -0.0578901 -0.035677936 0.05195495 -0.0013650033 -0.045873173
-0.003196424 0.02388299 0.016348999 -0.0063739503 -0.0017882704 -0.0076867985 0.048236944 0.0357596
-0.013785195 0.009647287 0.009979673 0.041112673 0.045932285 -0.006729527 0.01652193 -0.031145861
-0.03480511 -0.021891521 0.012488153 -0.05024756 0.015739756 -0.05377024 0.037997264 0.018135037
0.0006483895 -0.03652604 0.032462165 0.0040893867 0.021567201 -0.033281013 -0.06653086 -0.055139087
0.008087977 0.0385705 0.000903872 -0.0027707762 0.04585644 0.033243097 -0.03615639 -0.0102161225
0.0034094541 -0.04159839 0.03110822 0.025099898 -0.015688427 0.05110512 -0.0096320715 0.0199614
-0.013051404 -0.010855997 -0.014782545 0.013915455 0.028394088 0.040376138 -0.01609887 0.032766245
-0.062330294 -0.0037027206 -0.02443363 0.03941322 -0.0021056978 0.025428887 0.004213167 0.015079112
0.044421934 0.021202212 0.022220677 0.056267247 -0.00536446 -0.045662902 -0.016301138 0.004400253
-0.055570014 -0.03424876 -0.01107325 -0.039952327 -0.015050886 -0.03884618 0.012765758 0.039152842
-0.032597397 -0.024204807 0.040906705 0.0013672737 0.018555438 0.05948002 0.043208648 -0.025294924
-0.020677129 -0.029269764 -0.049133945 0.049099095 -0.057627574 0.047776718 -0.02231716 -0.020424487
-0.02328083 -0.018898824 0.010187763 0.015349544 0.031051857 -0.023711838 0.02972802 -0.043650206
-0.015933296 -0.026652297 0.007017274 -0.06049759 0.042589713 -0.03483707 -0.0011128109 0.008654369
0.024224175 -0.052468795 0.007281288 -0.04552685 -0.06541454 0.018792775 -0.00037450725 -0.013345205

ll1.bias f4 [150]
00000000: f0d4 6e3b 3468 063d e0c9 6bbd 5a97 543d
00000010: e408 153d 1099 dabc 3362 6abb 9137 463d
00000020: 44f0 233d ad93 6a3d b512 13bd 9a81 b03b
00000030: d78e 823d aef1 3b3d 0b6c 653d f9ea 14bd
00000040: 931d c4bc 5928 2f3d 5a9d 0d3d a9ac 903d
00000050: eecc 443d 76ac 1fbd e35c 4e3d bab0 edbb
00000060: c47e 663c b884 da3a aeb5 663d bdf6 69bb
00000070: 9c1b b83c 096a 453b 09bc 3e3d 6311 f0bc
00000080: edd4 9e3c b3c9 82bc 91cb 25bd 0c44 d2bc
00000090: f05d 873a 5342 17bc e2af 1c3d d51f 83bd
000000a0: 1e5a f83c e568 f73b a8fc 2dbb 96e2 093b
000000b0: 6c10 813b 39f7 35bd 0b18 463d d73d 68bc
000000c0: f988 1a3d 9858 263d a693 e13c 3493 093d
000000d0: 246c 493c cd6c 43bd e19c 02bd 3e1c 23bb
000000e0: 2375 32bb 7e16 933c 4140 3fbd d994 b5bc
000000f0: edee 4ebd 1002 593c 001d a4bc 661e b83c
00000100: ffed a9bc 497a 50bd b194 a73c bfca 65bd
00000110: f5c8 f63b 4281 763b 74ea 50bd f925 123d
00000120: aeb9 debc 6802 b8bc aff7 2ebd 7543 823d
00000130: bab8 ff3b b543 1fbd 9b59 ed3c a542 6fbd
00000140: 729c c83c 3c05 803b b90c 50bd 8d6f 2a3c
00000150: 6e42 4d3d b9fc a8bc ba61 f6ba 1b5c bb3c
00000160: b30f b5bc 5501 8cbc c3c0 a13c 2bde 24bd
00000170: 15de 54bd db9d 4d3d 5e28 4dbc 7902 8bbd
00000180: 4a4b 063d dc75 3d3c f6a5 69bc 15b0 eb3c
00000190: f8d0 a93c bb09 643d 479d 60bd f75d 423d
000001a0: f955 37bd 752d 18bd a369 30bd 9ee7 113c
000001b0: 71bf 053d 1aa4 1c3d 4237 a83d 15b9 4c3d
000001c0: 8d49 bdbb 1786 36bd 085c efbc 72d7 57bd
000001d0: b103 d2bc 3859 923c ac39 e3bc d2e0 38bd
000001e0: 39c9 dfbb 26c2 00bd 37dc 89bc 3227 423c
000001f0: 4ce9 2e3c 6400 57bd b24f e33c 4f86 04bc
00000200: 9bd3 083d af4e eabc 8e51 973c 804c 883c
00000210: d59f 31bd 9700 c9ba ee04 60bd 1ba8 61bd
00000220: 5b26 d3bb 5e14 833c 427d 1ebd 2244 0e3d
00000230: a368 173c b35c 07bd 4c10 493d 1f5e 453b
00000240: a631 cbbc 3086 5d3d ec99 10bd 5549 2b3d
00000250: 25ef 523d ca1b 23bd
0.0036442839 0.03281422 -0.05756557 0.051902153 0.036385432 -0.026684314 -0.0035764098 0.048392836
0.040024057 0.05726974 -0.035906512 0.0053865435 0.06374901 0.04588478 0.05601124 -0.0363569
-0.023939883 0.042763088 0.03457389 0.07064182 0.048047 -0.03898283 0.050381552 -0.0072537335
0.014068309 0.0016671633 0.056325607 -0.0035700046 0.022474103 0.0030123016 0.046566043 -0.029305166
0.01938864 -0.015965318 -0.04047734 -0.025667213 0.0010327678 -0.0092321215 0.038253672 -0.06402556
0.030316409 0.007550346 -0.00265483 0.0021039597 0.003938725 -0.044425223 0.048362773 -0.0141749
0.037728284 0.040611833 0.027536225 0.03358765 0.012293849 -0.047711182 -0.031887893 -0.002488866
-0.0027230463 0.017955061 -0.046692137 -0.022165703 -0.050520826 0.013245121 -0.02003336 0.022475433
-0.020743368 -0.05089787 0.020456644 -0.056101557 0.00753128 0.0037613665 -0.051004842 0.035680745
-0.027188148 -0.022462085 -0.04271668 0.06360523 0.0078040035 -0.03888293 0.028973391 -0.058413167
0.024488661 0.003906874 -0.050793383 0.010402572 0.05011218 -0.02062832 -0.0018797435 0.022871068
-0.022102213 -0.017090479 0.019745236 -0.04025094 -0.051969606 0.05019937 -0.012521831 -0.06787581
0.032786645 0.011563744 -0.01426076 0.028770486 0.020729527 0.055673342 -0.05483749 0.047452893
-0.044759724 -0.037152726 -0.043069493 0.0089053195 0.032653276 0.038242437 0.082136646 0.049981195
-0.00577659 -0.04456147 -0.029218689 -0.0526957 -0.025636526 0.017864808 -0.027737461 -0.04513628
-0.0068294075 -0.031435154 -0.01682864 0.011850165 0.0106757395 -0.052490607 0.027747963 -0.008088662
0.033404928 -0.028601972 0.018471505 0.01663804 -0.04336532 -0.0015335259 -0.0546922 -0.05509196
-0.0064437813 0.016000923 -0.038693674 0.034732945 0.009241256 -0.03304739 0.049087808 0.0030115915
-0.024803948 0.05408305 -0.03530304 0.04181798 0.051497597 -0.039821424

ll2.weight f4 [84, 150]
00000000: 8926 b73c 7a82 103c c774 59bd e516 d83c
00000010: 3ee9 6fbd 7cf8 723d 06d6 893d d015 b2bb
00000020: 913e 90bc c5b0 593d 9e4c 3dbd ce11 23bd
00000030: b865 36bd a981 ef3c 80f5 a53a 79a0 83bd
00000040: 3291 973d bb0e b239 67c3 7f3d b4b6 9abd
00000050: 283f 89bb 4c64 45bd a36d 97bd 92a2 893d
00000060: d287 2fbc 523a 333c fca2 83bd 8489 493d
00000070: f819 093d 22fa ad3c b811 cd3c a3dd f33c
00000080: 7e15 94bd fc87 7fbc b4d1 bf3c f9ab 42bd
00000090: f83b 36bd 1e2e 81bd 3aaf 813d fdd5 8e3c
000000a0: a901 16bd 0650 cabc b844 94bd 764b 813d
000000b0: 70f5 afbd ce07 6f3c fdf1 05bd 1012 d3bb
000000c0: 474a 4f3a 58d7 2bbd cff3 f93c c16d 1abd
000000d0: 882f 12bd 3fdd 4ebd 08d6 96bd dd59 52bd
000000e0: 8355 933d 8c17 5ebb 5e1b f7bc 3d0b 803d
000000f0: 71c7 77bc bc40 2b3c 74bf 973c 2612 6a3d
00000100: 8a89 45bd 1328 2f3d dabe 04bd 1d2d a3bc
00000110: 5847 833b ec70 68bd 5de8 96bd 2e4b 6bbd
00000120: 5052 a63c e4ec 173d 7fbb 683d 2cb3 883d
00000130: b38c 1bbd 72e7 8bbd 941e a63c 47d1 4e3d
00000140: e923 a2bd be21 843d 0c5d 683d 4e18 6fbc
00000150: 9bcd 8e3d aff7 79bc 90c1 88bd 9df1 18bd
00000160: 07b3 3cbd 7d96 8b3d 7153 473d 9747 4bbd
00000170: 29ba 5a3d ea51 17bd 2282 8a3d 9228 253d
00000180: 6d59 a2bd f6f4 fc3c e29e 5f3d e058 913d
00000190: 7295 aabd a940 dfbc d1af 733d b303 10bd
000001a0: 73d2 1c3d e40f 063d 881d ffbc 54ce 13bd
000001b0: d1e0 5abd 23c0 e3bc 97fe 57bc 6f5e fcbc
000001c0: 08c5 a73c d448 403d 1acc 443c c9ec 3a3d
000001d0: 2843 983d 7cc1 52bd 60d1 21bd e232 1abd
000001e0: 4899 703d beae 993d 529b 123c 7fa6 0abb
000001f0: 82e2 8bbc 3532 47bd a17d aabd 79e6 15bd
00000200: f2ff 78bd d752 af3c 5089 d93c 6e53 d13a
00000210: 9693 823d e74f 633d bef3 92bd 7392 28bd
00000220: c8dc 98bc e1f8 b53d 72c2 fe3c afa7 f4bc
00000230: 0e71 27bd 057e 123d 020e 8c3d 495b 26bd
00000240: 12ba 8ebd 87f8 0dbd 987d 003d c3f2 82bd
00000250: 5709 6f3d c87a e1bc 36be e8bc ce9e 533d
00000260: 7d21 923d 488d 7e3d ef01 443d e5c2 903d
00000270: f0da 343d aaaf 053d a159 90bc 16ee 65bd
00000280: a815 24bd b45c 933c c97f 133d 5fa2 9b3d
00000290: d641 89bb 0d45 b63d 5354 743d bc56 39bd
000002a0: 2a49 86bc 19dc 733d dedc 61bc 020a fbbc
000002b0: 6343 70bd bd48 883c f0fb fb3b b6a8 943d
000002c0: 7ddc 893d ebf6 12bd a126 82bb 69f4 303d
000002d0: e420 de3c 9cb1 cb3d a886 b33c 2d72 81bd
000002e0: 8f0c 83bd 3ea3 273d 1756 cd3d 73eb e5bc
000002f0: 74dd 553d 356e 2cbc 512b 4dbd 2b66 fc3c
00000300: ee40 0ebd 3d5a 40bd b4fe fc3d 8aa1 7b3d
00000310: 6f80 953d 93bb f0bc 1bbf 35bd 8e08 75bd
00000320: b029 92bd 050a 473d 31fa 643c 1c8b 72bc
00000330: 359f 8b3c 22ae ca3d c2ce 913d d558 b5bc
00000340: 3727 cf3d bbda 86bd 1807 bf3d a168 853d
00000350: 5845 023c 53a5 803c 2d56 2a3d 47ba 7f3c
00000360: d63b ed3c bbce 45bd 7dab 85bd 9448 29bd
00000370: ac71 9b3d f805 1c3d 0fbb 2d3d 52a1 873d
00000380: 06db 6dbc 3709 5ebd 9b41 c33c 61b9 97bd
00000390: dcdb 50bd 43d5 103d 8ff0 a6bd 4608 343d
000003a0: dac9 313d 52af 63bd e4bc 63bd 1327 803d
000003b0: e033 ba3d 7204 933c 5eeb e1bc 32a9 76bc
000003c0: c483 b7bc f3c2 83bd 4779 8e3d 0d76 20bd
000003d0: dedc 63bd a035 5bbd 528d c53c 88c1 ad3c
000003e0: 9e73 8c3d 83e0 083c b1e4 a03d 6c99 843d
000003f0: e745 283c fe4a 93bd bafc cb3c 2fd7 6dbc
0.022357242 0.008820171 -0.053089883 0.026378104 -0.058572046 0.059319004 0.06730275 -0.005434729
-0.017607959 0.053147096 -0.046215646 -0.0398119 -0.0445306 0.029236631 0.0012661666 -0.06427092
0.07400741 0.0003396178 0.06244221 -0.07554379 -0.004188437 -0.048191354 -0.073939584 0.06720461
-0.010713534 0.010939198 -0.06427571 0.04920341 0.03347203 0.021237437 0.025032863 0.02976877
-0.07230662 -0.015596386 0.023415424 -0.047527287 -0.044490784 -0.06307624 0.0633225 0.017436022
-0.036622677 -0.024696361 -0.072396696 0.06313221 -0.08591735 0.014589263 -0.03270148 -0.006441362
0.00079074915 -0.041953415 0.030511765 -0.037702326 -0.03568986 -0.050503965 -0.07365042 -0.05135523
0.071940444 -0.0033888547 -0.030164417 0.062521435 -0.015123234 0.010452446 0.01852391 0.057146214
-0.04822687 0.042762827 -0.032408573 -0.019918973 0.0040063076 -0.056748316 -0.073685385 -0.057444744
0.020302922 0.03709115 0.056819435 0.06674799 -0.037975978 -0.06831254 0.020278253 0.05049255
-0.079170056 0.06451748 0.05672936 -0.014593197 0.0697281 -0.015256806 -0.06677544 -0.037339795
-0.04606917 0.06815813 0.04866356 -0.04962882 0.053400192 -0.036943354 0.06763102 0.040321894
-0.07927213 0.030878525 0.05459488 0.0709703 -0.08329286 -0.027252512 0.059493843 -0.035159778
0.038286638 0.03273 -0.031142011 -0.03608544 -0.053437058 -0.027801579 -0.013183258 -0.030806748
0.020479694 0.046944454 0.012011552 0.045635972 0.07434684 -0.051454052 -0.039506316 -0.037646182
0.05873993 0.075040326 0.008948164 -0.0021156368 -0.01707578 -0.048631866 -0.08324743 -0.03659675
-0.060790963 0.021401806 0.026554734 0.0015970299 0.06375806 0.055496123 -0.071753964 -0.04115529
-0.018659964 0.088853605 0.031098578 -0.029865114 -0.0408793 0.035764713 0.06838609 -0.0406144
-0.06969084 -0.034660842 0.031369776 -0.063939594 0.058358517 -0.027524367 -0.028411012 0.05166512
0.07135294 0.062146455 0.047853407 0.07068423 0.044154108 0.03263823 -0.017620863 -0.05613526
-0.040059716 0.01798854 0.036010537 0.07599329 -0.0041887565 0.08899889 0.05965073 -0.045248732
-0.01639231 0.059536073 -0.013785569 -0.03064442 -0.058658015 0.016636247 0.0076899454 0.072587416
0.06731508 -0.03588001 -0.00397189 0.043201838 0.027115293 0.09945986 0.021914795 -0.063206054
-0.0639888 0.040927164 0.10026186 -0.028066372 0.052213147 -0.010524322 -0.050090138 0.030810436
-0.03472989 -0.046961058 0.12353268 0.061433353 0.072998874 -0.029386317 -0.044371706 -0.05982261
-0.071368575 0.04859354 0.013975666 -0.014803674 0.01704369 0.098964944 0.07119514 -0.022137085
0.101149015 -0.06584688 0.09327525 0.06514097 0.007951103 0.015703833 0.04158609 0.015608377
0.028959196 -0.048292857 -0.065268494 -0.04132898 0.075900406 0.03809163 0.04241472 0.06622566
-0.014517551 -0.054208007 0.023834994 -0.07408405 -0.050990924 0.035359632 -0.08151352 0.043953203
0.04340539 -0.05558712 -0.055600062 0.06257453 0.090919256 0.017946456 -0.027578052 -0.015054988
-0.022401698 -0.06433668 0.069567256 -0.039175082 -0.055630557 -0.053517938 0.024115238 0.021210447
0.0685799 0.008354309 0.078561194 0.064745754 0.010270572 -0.07192038 0.024900783 -0.014516636

ll2.bias f4 [84]
00000000: 8db6 cdbb af21 933c 46b9 ad3c a032 86bd
00000010: ee23 5e3d d8b7 b2bd 786e 52bd 7fc5 733d
00000020: 027b b2bb 8f7b 9dbd c40f a1bd 7b1c 0a3d
00000030: 1363 243d 6817 daba c229 333d 7e75 7b3d
00000040: 151f 103d f5c2 1bbc f4fe 843d f3a4 433d
00000050: 1fc0 56bd 2357 84bd a04d 903d 6775 07bd
00000060: 102a 6cbd 8beb 5ebd 1fcf a23c 9356 873d
00000070: 6d2a e73c be55 a53c 474f 97bc 27d8 a7bd
00000080: 5da6 76bd 15e4 98bd 9823 87bb 2a37 153d
00000090: 61c5 34bd d9ec 2a3d 6276 0abd aa8e 02bd
000000a0: db4f 84bd e3b8 76bd 4554 133d 1f0f 8bbd
000000b0: 8e5e 54bc eabe 1bbd 4ee1 3b3d fef1 763d
000000c0: fcbf 983c 5307 c7bc 6110 a1bd 15ac 58bd
000000d0: 62b7 32bd a2ad 9ebd 7ff1 283c a7ff 88bd
000000e0: c62d 013d 130d 7ebd 6126 3cbd 6893 dbbb
000000f0: ae7d 9c3d c29d 21bd 217d 28bd 0ce8 a6bc
00000100: a310 933d 6d95 aebd 8b2e f53c a3d3 853d
00000110: c7cd 0f3d 7fd7 a2bd 08ca 4cbd a2d7 3ebc
00000120: b03b aa3d aac4 87bd 7c35 fc3c 3bf8 5d3d
00000130: 1e2c b3bd 5651 95bd 0317 873d fa7e 24bd
00000140: 225a 37bc a91c 923d 59d6 a03d 9828 70bd
-0.0062778653 0.017960398 0.02120651 -0.06552625 0.054233484 -0.08726472 -0.051374882 0.05951452
-0.0054467926 -0.076895826 -0.07864335 0.033718567 0.040133547 -0.0016639056 0.043740995 0.061391346
0.035185892 -0.009506931 0.06493941 0.04776473 -0.052429315 -0.064619325 0.07046056 -0.033070948
-0.0576573 -0.05442385 0.019874154 0.066083096 0.028218472 0.020182487 -0.01847042 -0.08195525
-0.06021725 -0.07465378 -0.004124116 0.03642956 -0.044133548 0.04172978 -0.033804305 -0.031874336
-0.06460544 -0.060234915 0.035969038 -0.067899935 -0.012961997 -0.038023867 0.045869164 0.060289375
0.018646233 -0.024295485 -0.07864452 -0.052898485 -0.04363192 -0.077479616 0.010311483 -0.06689387
0.031537794 -0.062024187 -0.04593504 -0.006700922 0.07641159 -0.03945709 -0.041134957 -0.02037432
0.071809076 -0.085245945 0.02992942 0.06534507 0.035108354 -0.07951259 -0.04999736 -0.011648091
0.08312166 -0.066293076 0.030787222 0.05419181 -0.08748649 -0.07290904 0.06596186 -0.040160157
-0.011190923 0.07134373 0.078533836 -0.058632463

ll3.weight f4 [42, 84]
00000000: 6cb4 40bc 82b7 5a3d 5569 c0bd 26dd 66bd
00000010: 6183 a43d deab dcbd 7d3b cc3d f05f c2bd
00000020: c81a 6ebd 9797 ea3c 445f 833c ed4c a23d
00000030: d8fe b33d 37d6 8c3d 2bbd f2bc 1d58 ea3d
00000040: 4700 be3d e6f9 f4ba c2ca e13d a6d5 163d
00000050: e390 913d b979 29bc 6552 a1bd d7d6 463c
00000060: 7e74 f93c b012 0bbd bb2e dbbd d0c5 0ebd
00000070: 9d85 e5bc 904a 483d 5ec0 21bc 1704 b9bd
00000080: 745f b3bd 6488 17bd 4f6b 043d 451a 783d
00000090: 9deb b3bd de67 fcbc 0f92 2f3d c6fa 3e3e
000000a0: 8c89 99bc c051 8f3d a58e b3bd ed2e a2bd
000000b0: 8a6b c93d 002d f43d e33d 8f3d bd78 393d
000000c0: fa28 75bd 5213 c23d 8ee8 8ebd 6335 bdbd
000000d0: dd70 d5bd d7e1 05ba dd7e 1e3d 399b e7bd
000000e0: a6fe 0abd 9542 943d a19c d9bd 7384 d0bd
000000f0: 6bc2 e73d 754e b83c 82f8 e1bb c414 4dbc
00000100: 80c2 3dbd 8e5a efbb d481 1e3d 2d8e e6bd
00000110: 4281 ddbd 1954 4a3d eb44 7a3d 6cd7 423d
00000120: e20b 0e3a 9a15 293d d77d 433c 0f23 a23c
00000130: 001c 6a3d 056b 96bd 935a 973d 0ec9 f1bd
00000140: 1a5b d9bd 9b52 fc3d 6263 5ebd 6798 dd3c
00000150: 777d 893c 1747 c9bc f264 9f3d 7db5 603d
00000160: 9958 ce3d 8277 0cbd 5025 c93d 44d9 b9bd
00000170: 7aad 9a3d 11b2 97bd 5805 133d e808 ce3d
00000180: 3f47 92bd 62db ce3c 80f8 44bc abe7 b33b
00000190: 7fa9 043d 1002 9b3c 3413 cfbd 4cc2 d8bd
000001a0: a857 56bc 4334 fcbc fc27 00bd ab29 90bd
000001b0: 0381 4b3d a94f 373d 21f2 b0bd 3fc8 b8bd
000001c0: 314b c13d 54b7 d7bc cbee 5cbd 42a9 ba3d
000001d0: a149 5f3d 2e01 88bd 3ca1 203c abe6 933d
000001e0: 690e 3abd e42a f0bd 9d0d 823c 3284 e3bd
000001f0: c4c5 7c3d 5fcf 18bd 9f91 903d 0cd3 6b3c
00000200: 7f79 dfbc 6552 ea3c e79c 6e3d 03ce d93c
00000210: b902 ddbd 4418 f43a 9216 fe3c 0ba3 ae3d
00000220: aa51 85bd ca80 96bb b729 93bd 44bb 4b3d
00000230: e7a5 91bd e605 403d 6e6f e0bd 095e f63c
00000240: 57d1 d03d 2664 86bc 9082 563d caa0 b03d
00000250: 9e5e dc3c 25e3 cc3d 0563 5e3d 41b1 12bd
00000260: 76d4 f83b 240c 35bd c10d c9bd 5211 bf3d
00000270: dfa1 d53c 716d 37bd 3b63 9b3c e089 94bd
00000280: 1842 f3bb 0f25 263d 7b5a e63c 8955 ccbd
00000290: 6923 fb3c d2f4 cfbd 4f59 063d 364a b43d
000002a0: 75af 9a3d 1618 d6bb 63af 90bd 5d9e b13c
000002b0: 532a 8d3d 85f9 7a3d e5b6 1d3c 1bba d3bd
000002c0: 7cf5 8bbd 0a2a 8abd cb36 793b 786a bdbd
000002d0: 2b7b 83bb d1f9 28bc 4c8c 7f3d 3bd4 b3bd
000002e0: a238 2dbd 48ca 193d 4389 64bc 97d3 8fbd
000002f0: 6a5b 323d 7ac6 e8bd b834 88bc 4291 cabc
00000300: 1162 d0bd 1a7f 9e3d f3cd 623c ffb9 50bd
00000310: 8bfc 85bb 4453 dabd b54f bc3c 211a 9eba
00000320: 684c 533d 4bb2 6ebd 6680 c6bd 42dd 4e3d
00000330: 74d1 933c 7aa0 993d 3bd5 b03d 2a95 723d
00000340: d5d6 8b3d c232 e53d 4c65 8dbd d3b7 71bc
00000350: be5e c7bd 4f06 b23d 2229 dcbd 5deb babd
00000360: 44f0 f23c 3677 6ebc 274b 823c 34fb e6bc
00000370: a1f0 473d 13b4 873d 0913 ba3d e651 42bd
00000380: 1dda 90bd dc42 99bd 7796 e6bb d216 21bd
00000390: aa4f 3dbd abe8 cfbd fe46 893d d571 b9bd
000003a0: c1f7 bc3d d5e9 9f3d 17d0 d5bd 91b2 a93d
000003b0: a4e1 bf3d 93b0 d13d f25e 833d 4529 51bd
000003c0: decd 783d be09 cdbd 2e45 323d 5eeb 283d
000003d0: da68 613d e9b7 aebd 931f b53d 7149 b0bd
000003e0: ade5 c8bd 89b8 d03c 2637 b0bd 4799 d3bd
000003f0: 8248 933d 149f 763d 2353 d23d 792e 803d
-0.011761766 0.053397663 -0.093950905 -0.056363247 0.08032871 -0.107749686 0.09972284 -0.09490955
-0.05813101 0.028636737 0.016036637 0.07924829 0.08788842 0.06876796 -0.029631218 0.114425875
0.09277397 -0.0018690198 0.11025001 0.036824845 0.07107713 -0.010343962 -0.07877044 0.012136183
0.030451056 -0.03395337 -0.107022725 -0.034856617 -0.028017813 0.048899233 -0.009872524 -0.09033983
-0.087584406 -0.036995307 0.0323289 0.060571928 -0.08785174 -0.030811246 0.0428639 0.1865035
-0.018742345 0.069980145 -0.08767442 -0.07919107 0.098349646 0.119226456 0.06994226 0.04528116
-0.05985353 0.09476341 -0.0697795 -0.09238698 -0.104219176 -0.00051072 0.038695205 -0.11308903
-0.033934258 0.07239262 -0.10625578 -0.10181513 0.11316379 0.022498349 -0.0068960795 -0.012517158
-0.046328068 -0.007304496 0.038698032 -0.11257587 -0.108156696 0.049396608 0.06110088 0.047568724
0.0005418641 0.041280366 0.011931858 0.019792108 0.05715561 -0.07344631 0.073903225 -0.11805926
-0.10613079 0.12320443 -0.054293998 0.02705021 0.01678346 -0.024570031 0.07782926 0.05486058
0.100754924 -0.03429366 0.0982157 -0.09074643 0.07552619 -0.0740701 0.035893768 0.100602925
-0.07142495 0.025251094 -0.012022138 0.0054902635 0.032388207 0.018921882 -0.101110846 -0.10583934
-0.013082422 -0.03078664 -0.031288132 -0.070391975 0.049683582 0.044753704 -0.086399324 -0.09022569
0.0943817 -0.026332535 -0.05393867 0.091143146 0.054513577 -0.0664085 0.009804066 0.07221731
-0.0454239 -0.11726931 0.015875632 -0.11109199 0.06171204 -0.03730714 0.07059025 0.014393579
-0.027279614 0.028603742 0.058255102 0.026587492 -0.10791535 0.0018622954 0.031016622 0.08527192
-0.06509717 -0.0045929896 -0.07185691 0.049739137 -0.071117215 0.046880625 -0.109587535 0.030074136
0.101961784 -0.016405176 0.052370608 0.08624418 0.026900586 0.10004262 0.05429365 -0.035813574
0.0075936867 -0.04420103 -0.098170765 0.093294755 0.026078163 -0.044782106 0.018968215 -0.0725286
-0.0074236505 0.040562686 0.028119316 -0.09977252 0.030656533 -0.10154118 0.032800015 0.08803217
0.07552997 -0.006533633 -0.07064702 0.021681959 0.06892838 0.061273117 0.009626125 -0.10338231
-0.06833932 -0.067462996 0.0038027044 -0.09248823 -0.0040124855 -0.010313467 0.062389657 -0.08780714
-0.042290337 0.037546426 -0.013948741 -0.070227794 0.04354421 -0.113659814 -0.0166267 -0.024727467
-0.10174955 0.077390864 0.013843047 -0.05095863 -0.0040889434 -0.10660413 0.022987226 -0.001206223
0.05158654 -0.058275502 -0.09692459 0.050503977 0.018044211 0.075013116 0.086344205 0.059224285
0.06828085 0.11191322 -0.069040865 -0.0147533 -0.097348675 0.086926095 -0.10750033 -0.09126923
0.029655583 -0.014554789 0.015904976 -0.028195955 0.048813466 0.06626143 0.09085662 -0.047441386
-0.07072852 -0.074834555 -0.00703698 -0.039328404 -0.04621855 -0.101518 0.06702994 -0.09054915
0.09226943 0.07808272 -0.104400806 0.08286012 0.093692094 0.10238757 0.06414594 -0.05106475
0.060743205 -0.10011624 0.043523006 0.04124009 0.055031635 -0.08531172 0.08843913 -0.08607758
-0.09809432 0.025478618 -0.08604269 -0.1033197 0.07191564 0.060210302 0.10269763 0.06258864

ll3.bias f4 [42]
00000000: ea94 8a3b 87ec b43d a0b1 c53d bb42 80bd
00000010: c0b5 f73d eee3 623d ed9e 2b3d f406 043c
00000020: e5f6 6c3d 3a66 b9bd bbff bd3d 1482 abbc
00000030: fa89 a03d 5061 91bd 8bfc a23d 0b01 bc3d
00000040: ffab 54bd 5538 9f3d b004 c53d ce28 213d
00000050: abb0 68bc 63a2 1abd 8c74 743c ecd7 5a3d
00000060: a302 783c 0fa7 b43d 6a35 a6bd def2 f83c
00000070: 7eee 81bd 6560 3b3d b3f0 313d 4c38 133c
00000080: d376 cbbd c319 1d3d 46f0 c83d 3c43 ebbd
00000090: 3b23 8f3d 0a0d aabd 49c2 ed3d ddf3 24bd
000000a0: bdef cabd a7b7 c03d
0.0042291777 0.088341765 0.0965302 -0.06262728 0.12095213 0.055393152 0.04189961 0.008058298
0.057852644 -0.09052701 0.09277292 -0.02093605 0.07838817 -0.07098639 0.07958325 0.091798864
-0.05192184 0.07774416 0.09620035 0.039345555 -0.014202277 -0.03775252 0.014920365 0.053428575
0.015137347 0.088209264 -0.08115657 0.030389246 -0.06344317 0.045746226 0.04344244 0.00898559
-0.09934773 0.038354646 0.098114535 -0.11487433 0.069891416 -0.08303268 0.116093226 -0.04027163
-0.09909008 0.09410029

ll4.weight f4 [26, 42]
00000000: e793 043d 6176 4fbd c73b 6cbd 45a8 4a3d
00000010: 72a8 1a3e b025 933c 4dc4 babd 467c dc3d
00000020: a80b 9d3c eaba bebd c33e 3b3e 552d 8938
00000030: c0bb b9bb b969 093e 6ccf e9bd 341b 8c3d
00000040: 8fd5 d33d b010 5e3d 36ae c2bd 4b13 213d
00000050: 49f5 833d c259 193e 05ed 14be 9b76 d4bc
00000060: c6f7 dbbd 2493 f1bd e63d 14be ca93 8839
00000070: 6b64 c03d 0804 0cbe 6e84 39bd 035a 04be
00000080: 8532 9bbd 8662 40bd 06c8 0abe 353e d5bd
00000090: 62ac 2bbc ea93 e33c 0172 31be cdd6 91bd
000000a0: 5c7d 35be bc91 a43d c08f 65bd df82 c33d
000000b0: 4ae4 80bd 6504 00bc 961f 12be aa5e ddbd
000000c0: b53a 8abd 4ecb 1f3e 58b3 0f3c 525f c93d
000000d0: fbac 223e 7375 1bbe 839f 03bd 5d72 fe3c
000000e0: 1e60 753d 4f2b 0d3e 5536 89bd 4b73 003e
000000f0: fa3e f9bd f0ae 363c a28d 8b3d 5d12 883c
00000100: dccc 46be c287 b9bd 847d a3be 85a0 043e
00000110: b7da fabd 5558 fc3d 256d a8bc b6e2 ee3c
00000120: b8c2 84bd 8627 4b3d a0c0 893d 88d9 a7bd
00000130: 0120 f73d 8a64 06be ebf5 173e 442f 13be
00000140: 2ab2 9c3d ee5b b33d 369c 52be 9a15 a63d
00000150: 4c92 05be edd6 4cbd 1b28 6abc db70 553d
00000160: d8f6 6cbc b89b a63d 2907 1bbe a5fc 14bd
00000170: 2bd5 033e 9ac6 683d ceab 9bbd 3026 233e
00000180: 4b3b 383d d8a4 633c 16a1 9d3b 153a c5bd
00000190: cd86 473d dcb1 5c3d d4d7 91bd 07e0 dcbd
000001a0: 19c9 d63d 8f8c 0a3d 9feb 1cbe 6d2f 243c
000001b0: 2710 de3c 2fb9 883d fdf3 1f3e d22e 793d
000001c0: cbed 37bd c60e 763d 7b1a 22be c2fa 1bbd
000001d0: 723e e53d 350d c1bc 3122 88bb 2280 62bb
000001e0: 5785 3a3c 7d3f 52bd 0ec0 013e 6a5c 103e
000001f0: d93e c63d 1512 5e3c 7e5a 163d 0dc5 043c
00000200: bf8c 8f3d 1769 d6bd 813d be3d ec13 5ebd
00000210: 6d9e d5bd e141 2ebc 15c1 d93d 712c 913d
00000220: cc55 e23d 8987 c63b 4417 f7bd 9ee1 9fbd
00000230: 3cd8 c7bd bccd 403e e85b b9bd 03fc 3abd
00000240: 0ece 683c 2513 02bd 2d4d 4e3c 2742 22be
00000250: f4a1 1d3e 6387 2ebe 3cd3 77bd 33bf fabd
00000260: b97f ce3d 2909 423d df3a 043e 0b07 f5bd
00000270: b1ca 83bc 11eb 173e e4e0 eebd 2eca c5bd
00000280: 0f42 17bd dc01 12be b8bb 203e 3d19 09be
00000290: e6a9 383e 8517 dabc ad6c a7bc 5f7f ce3d
000002a0: 9d84 aa3c b674 fb3d b0b3 8d3d f273 ca3d
000002b0: fdf7 19be 5168 ff3d 0f42 61bd a164 563d
000002c0: 3017 debd a5bd e83d 2aac 10be fda9 ab3d
000002d0: a9c7 84bc ae52 ae3d a990 99bd 83de 843d
000002e0: ded3 65bc 53ee ccbc 9b26 ccbd 7895 e73d
000002f0: f9ea f6bd ecb0 1b3e bbeb 75bd 0681 ccbd
00000300: 6ad8 acbd 287a f63d f3a3 83bd 0cd7 92bc
00000310: b630 a93d 9af2 87bd a303 703d eeb4 0abd
00000320: d85e 0e3d d42a 493c 7c9c 40be 4c99 7abd
00000330: 4be9 ad3d 467c e33d c43f ee3b fb55 6fbc
00000340: 419b 20be 941f 15be 7380 983b 9a7c 1bbd
00000350: cf5d 923d 2473 113e d172 32bc b3c7 bd3d
00000360: 54a5 f73d 99b3 c73c 8f77 de3d 81c4 ad3b
00000370: 5047 5cbe ad3d 6abd 8e5b dfbd 496d 42bd
00000380: 8c5e 293c 7bb6 a93d a51d a13c 6a58 02be
00000390: c315 05be d595 98bc a473 f6bd 8857 453d
000003a0: cf59 33bc 83f9 47be ac95 dcba d77a 873d
000003b0: 0c14 adbd 3e47 013e 58aa e03d e2f4 8cbc
000003c0: 8489 eebd b668 70bd 4880 d7bc 2edf 0cbe
000003d0: e5a0 8bbb 8d9a 1f3d 1ccf 843d e58f ccbd
000003e0: 3ee2 e9bd 6613 d5bd b309 ba3d c753 14be
000003f0: 8f71 ab3d c6df b93d 229c e7bd 93e2 b13b
0.032367613 -0.050650004 -0.057674196 0.04947688 0.1510332 0.017962307 -0.09119473 0.10765891
0.019170597 -0.09312995 0.1828566 6.541113e-05 -0.0056681335 0.13419236 -0.11416516 0.06841126
0.103434674 0.054215133 -0.09505884 0.03932504 0.06443269 0.14975646 -0.14543541 -0.025935462
-0.107406184 -0.11795643 -0.14476737 0.00026050053 0.09394153 -0.13673413 -0.04529231 -0.12924962
-0.07577995 -0.04696896 -0.13552865 -0.10412256 -0.010478111 0.027780492 -0.17328645 -0.07121048
-0.17723602 0.08035609 -0.056045294 0.09546446 -0.06293543 -0.007813548 -0.14269862 -0.10809071
-0.06749479 0.15604898 0.008770786 0.09832634 0.158863 -0.15181522 -0.032134544 0.031060392
0.059906118 0.13786052 -0.06699816 0.12543981 -0.12170215 0.011150107 0.06814124 0.016610319
-0.19414085 -0.09059097 -0.31931698 0.12951858 -0.12248748 0.123215355 -0.020559857 0.029160839
-0.06482452 0.04959824 0.067261934 -0.08195788 0.12066651 -0.1312429 0.14839904 -0.14373499
0.076511696 0.087577686 -0.20567402 0.08109589 -0.13044089 -0.050009657 -0.014291788 0.05210958
-0.014463149 0.0813517 -0.1513945 -0.036373753 0.12874286 0.056830026 -0.076011285 0.15932536
0.04497842 0.013894282 0.0048104627 -0.09630219 0.04871254 0.053880557 -0.07121244 -0.10784917
0.10487575 0.033825453 -0.15324257 0.010021073 0.027107311 0.06675946 0.15620418 0.060835667
-0.04490451 0.060072683 -0.15830414 -0.03808094 0.11193551 -0.023565868 -0.0041544666 -0.0034561236
0.01138433 -0.05133008 0.1267092 0.14097753 0.09679956 0.013554116 0.036707394 0.008103621
0.07009267 -0.10469263 0.09289075 -0.054218218 -0.10430608 -0.010635824 0.106325306 0.07088555
0.11051521 0.0060586375 -0.120649844 -0.07806705 -0.0975804 0.18828481 -0.09050733 -0.045650493
0.0142092835 -0.03175654 0.012591642 -0.15845548 0.15393811 -0.17043833 -0.060504183 -0.122434996
0.10082955 0.047372017 0.12913083 -0.11964234 -0.016087862 0.14835764 -0.11663988 -0.09657703
-0.036928233 -0.14258522 0.15696609 -0.13388534 0.18033561 -0.026622543 -0.020437563 0.10082888
0.020815188 0.1227812 0.06919038 0.09885396 -0.15036006 0.12471069 -0.05499464 0.05234206
-0.108442664 0.11364297 -0.14128175 0.08382032 -0.016208487 0.08511864 -0.07498295 0.06487753
-0.014027564 -0.025015986 -0.09968301 0.11307806 -0.12056536 0.15204209 -0.060039263 -0.09985547
-0.08439715 0.12035018 -0.06427755 -0.017924808 0.08261244 -0.066380695 0.05859722 -0.033863954
0.03475842 0.012278277 -0.18809694 -0.06118135 0.08491763 0.11107688 0.007270785 -0.014607902
-0.15684225 -0.14562827 0.004653984 -0.037960626 0.07146799 0.14204079 -0.010891632 0.09266605
0.12092081 0.024377631 0.10862648 0.005302966 -0.21511579 -0.057187725 -0.109061345 -0.047467504
0.010337483 0.082867585 0.019667456 -0.1272904 -0.12996583 -0.018626133 -0.120337754 0.04817918
-0.010946705 -0.19528775 -0.0016829274 0.06615227 -0.08451089 0.12624833 0.109699905 -0.017206613
-0.11647323 -0.05869361 -0.026306286 -0.13757011 -0.0042611235 0.03896575 0.064848155 -0.09988383
-0.114201054 -0.104040906 0.09083881 -0.14485084 0.08371269 0.090758845 -0.11309077 0.005428621

ll4.bias f4 [26]
00000000: 0576 ee3d 3f1e c33d 7ca0 85bc 91bb ed3d
00000010: 009f 8dbd 6835 ccbd a9fe 073e 21f2 e7bd
00000020: 25a4 453d 7873 03be b9c9 ab3d f7e2 223d
00000030: ed58 cf3d 5541 c83d 749f b63a 58d6 dd3d
00000040: 2cf1 19be bb57 b9bd 3dbc b93c 3fea a5bd
00000050: 9385 193d 0b77 d73d 6238 7d3c 7cfe ef3a
00000060: 7e76 aa3d f801 1a3d
0.11643604 0.09527253 -0.016311876 0.11608041 -0.069150925 -0.09971124 0.13280739 -0.11325479
0.048252244 -0.12837017 0.08388085 0.03976723 0.10124383 0.09778086 0.0013933019 0.108318985
-0.15033406 -0.090499364 0.022672767 -0.081013195 0.037480902 0.105207525 0.015455337 0.0018310095
0.08323382 0.037599534
