CIFAR10Classification/myCIFARModel.pt (torch, 364545 bytes, 12 tensors)

conv1.weight f4 [6, 3, 5, 5]
00000000: 21bf 6a3e 7c24 963d cdd4 d4be 1668 cfbd
00000010: 2b40 82bc eec2 8d3e 6616 bd3d b42c 16bf
00000020: ce93 20be a539 e83d 37f4 353e 07fd 653d
00000030: e321 f6bc c2ac 0b3b 6b48 8a3c c216 a5bd
00000040: fc34 0e3e 9364 a93d 524a 39bd 3318 babd
00000050: bee8 983d c33d f93d 85cf 333e 8dc1 efbc
00000060: 3cb8 2fbd 7b27 dc3e 8733 ba3e ecea dabe
00000070: 4ad2 0fbe 181f 913e 4969 b33e f5ae a53e
00000080: 0517 d5be cc72 d33d c1d4 933e 3579 273e
00000090: 7889 0c3d 7f35 87bd a22c 5b3e 5e65 373d
000000a0: 71e9 023e c8ed ba3d 650c 883d 5c5d bd3d
000000b0: 46f6 f03b 52d4 b5bc 43ee 793d a4b6 ed3d
000000c0: c0be 763d b9fe b63d 9d8e 863e cd73 093e
000000d0: 1cf9 0bbf dd40 34be a606 3e3d ece2 453e
000000e0: cbab 363d 0b98 22bf f430 3bbe 1fb4 073e
000000f0: d866 67bd 7a15 31be b683 8dbe 5e13 f9bc
00000100: 6546 08bd 8ad0 96bd 101b 29be a53b e9bd
00000110: 7be6 18be fd53 1ebd c5e8 5dbe 5a00 1ebe
00000120: 0362 16be c588 493a e633 3cbd af45 063e
00000130: 8024 1a3e f53a 833e 7b27 be3e ce24 d83d
00000140: 545a ebbc 9fd8 f23c c564 adbe 0d4c 02bf
00000150: 0e0d cebe 4f6f 093e 82a5 86be 5d36 68be
00000160: 3b33 99be 400b a4bd c30a 573d e891 eabc
00000170: a4e1 963d fc95 713e ad6f a43e 0b19 10be
00000180: 9975 52bd d96c 5c3e b617 153e 584e 8bbd
00000190: 2f51 ad3d 2756 763e b63c 4d3e 91db c83e
000001a0: b9c0 8d3d 0f12 d3bd 0042 83bc 1375 28be
000001b0: ec80 e9be 0fac c8be 2230 b23d c5bf 92be
000001c0: ba35 b2be a2e5 d0be 552c 33be cafa 043e
000001d0: 67c9 f53d 5ff5 743e 12ca c23e a1e2 cd3e
000001e0: 669d 28be 35b0 193d 3e56 2b3e b4e5 a43d
000001f0: 1c89 f1bd a87d 47bd 0747 473e 37c9 343e
00000200: df61 c43e 066d a33d e7ef 4dbe a7d2 16be
00000210: c8ec 78be b30f c0be a342 b1bd afea d1bd
00000220: 0b1e 94be 4002 58be 416f aabe b69c ebbd
00000230: dd01 9e3d 0cf8 393e 0c0c 023e 692f a43e
00000240: a951 e63e 9ae1 47bd c3f3 74ba ee52 a03c
00000250: dc7a 933d 351c 8bbd 80f1 42bd 11ac b1be
00000260: 423b d6be e6d0 bbbd 6b7b 473d 3c1c 2dbc
00000270: 684d 643d 73e2 83be 6981 8bbe 58f9 32bd
00000280: 5075 dc3d d31c 833e 1941 7c3e 171f b8bd
00000290: b6e7 16be 1dba a63a bbee 253e 1427 a43e
000002a0: b2ff 6a3e befe 063d cb52 9e3c 08de 753c
000002b0: 35ce 893e ce97 1b3e 77d4 483e 03aa 19be
000002c0: f94d fdbe c73c e3be 085f 8fbd 6014 113e
000002d0: d182 333d 4695 6d3d 6964 a7be 7003 f9be
000002e0: 4c99 413c 4b24 833d f1d8 553e 6f02 ad3d
000002f0: bffb 65bd 2c90 eebd fcd2 553d a753 263e
00000300: f535 8a3e 9494 713d dd58 b23d 857e e1ba
00000310: 0ff5 8fbc c1ca 413d e905 3b3e 5ef8 1d3e
00000320: 9252 4b3e 8871 f7bd 0bf4 43bd 7560 de3e
00000330: 9a88 c83e e349 913e f934 483e 1c47 84be
00000340: 979e 23be 9871 453e d6db 12bd b733 ca3d
00000350: e9db 8e3c 59bf 5abe 3211 95be 9ae4 b5bc
00000360: 9f5a d13c 4e0e 8c3d f949 963b 8081 48be
00000370: 98a9 8ebe 81ca 29be 6d8f c9bd fde9 99bd
00000380: faa8 5cbe 88d0 1dbe f5b1 4a3e f9c4 643e
00000390: b0c2 613e ade3 0b3e 1bef a13d 5606 b53e
000003a0: 2989 813e 007b 973e 26bb c33e 38bd 723e
000003b0: 18ca 863e 6bd9 c13d e792 fd3d 8f89 aa3e
000003c0: 1a4e 41bd 07c0 323e a0a0 0fbe a995 5f3e
000003d0: facf 813e 22c0 31be 2638 69bc e140 6cbe
000003e0: 3296 be3b 556c 073d f10f 6fbe 34d3 593d
000003f0: e0ff 4bbe 416b 53be 88ce 013d c324 c5bd
0.22924472 0.073311776 -0.41568604 -0.10127275 -0.015899738 0.27687782 0.09232788 -0.5866196
-0.15681383 0.1133912 0.17768942 0.05614951 -0.030045455 0.0021312688 0.016880235 -0.08060981
0.138874 0.08271136 -0.045236893 -0.09086647 0.07466267 0.12169983 0.17559631 -0.029267097
-0.04290031 0.4299887 0.36367437 -0.42757356 -0.14045063 0.28344035 0.35041264 0.32360044
-0.41619125 0.1032463 0.28873256 0.1635483 0.034310788 -0.066020004 0.21403745 0.044774406
0.12784363 0.091273844 0.06642989 0.092463225 0.007353577 -0.022195969 0.06101824 0.116071016
0.060240507 0.08935303 0.2628068 0.1342308 -0.54676986 -0.17602868 0.04639306 0.19324845
0.04459743 -0.6351325 -0.18280393 0.13252304 -0.056494564 -0.17293349 -0.2763955 -0.030404743
-0.03327026 -0.073639944 -0.1651423 -0.113883294 -0.14931671 -0.038654316 -0.21670826 -0.15429822
-0.14685826 0.0007687922 -0.04594793 0.1311252 0.15052986 0.25630918 0.37139496 0.10553895
-0.028729595 0.029644309 -0.33865944 -0.50897294 -0.40244335 0.13421367 -0.26298147 -0.22676988
-0.29921898 -0.08009958 0.052500498 -0.028634027 0.07367256 0.23592371 0.32116452 -0.14072053
-0.05138168 0.21525897 0.14559826 -0.06802052 0.0846275 0.24056302 0.2004269 0.39230016
0.069215246 -0.10306179 -0.016022682 -0.1645091 -0.45606172 -0.3919377 0.08700587 -0.28661934
-0.34806615 -0.40800196 -0.1749738 0.12986293 0.12001305 0.23921727 0.38044792 0.40211967
-0.16466293 0.03752156 0.16732118 0.08051625 -0.1179373 -0.04870382 0.19460689 0.17654882
0.3835592 0.07979779 -0.20111047 -0.14728795 -0.24309075 -0.37511978 -0.08655288 -0.102498405
-0.2892917 -0.21094608 -0.33288005 -0.115044996 0.07715199 0.18161029 0.12699908 0.3206742
0.44984177 -0.048799135 -0.00093441847 0.019570794 0.07201168 -0.067924894 -0.047593594 -0.3470159
-0.41842085 -0.091707036 0.048701685 -0.010565814 0.055737883 -0.25758705 -0.2724717 -0.043694824
0.10764563 0.2560793 0.24634208 -0.08990305 -0.14736828 0.0012720261 0.1620435 0.32061064
0.22949103 0.032957785 0.019326588 0.01500655 0.26915136 0.15194628 0.19612299 -0.1500626
-0.4947355 -0.44382307 -0.07000548 0.14167929 0.043825928 0.058003686 -0.32693794 -0.48635435
0.011816334 0.06403407 0.20883538 0.0844773 -0.056148287 -0.11648592 0.052203164 0.16242848
0.2699429 0.058979586 0.087083556 -0.0017203843 -0.017572908 0.0473125 0.18263973 0.15426776
0.19855717 -0.12082201 -0.04784016 0.43432966 0.3916672 0.28376684 0.19551457 -0.25835502
-0.15978466 0.19281614 -0.035854183 0.09873145 0.017438846 -0.21362056 -0.2911468 -0.022203732
0.025555907 0.06838666 0.004586455 -0.1958065 -0.27863765 -0.16581155 -0.098418094 -0.07515333
-0.21548834 -0.1541158 0.19794448 0.22340764 0.22046924 0.1366107 0.07906934 0.35356396
0.25299957 0.2958603 0.3822872 0.23704994 0.2632606 0.09465297 0.12381535 0.33308074
-0.047193624 0.17456065 -0.14026117 0.21834435 0.25353986 -0.17358449 -0.014234578 -0.23071624
0.0058162445 0.033062298 -0.23345925 0.053179935 -0.19921827 -0.20646383 0.031691104 -0.09626152

conv1.bias f4 [6]
00000000: dec0 133d 6875 853c 32c7 743c 36c4 1b3e
00000010: c7f6 efbd af6d 63be
0.036072604 0.016291335 0.01494007 0.15211567 -0.11716991 -0.2220981

conv2.weight f4 [16, 6, 5, 5]
00000000: efa9 183d 3ad3 173e d108 4a3d 757e bebd
00000010: a026 a93c 9b90 ac3d 4a49 863e 6eb8 263d
00000020: 6db6 bb3e c267 b1bc 99f6 e33d 67f0 923e
00000030: 3ebe 763e e128 9d3e da68 563e da0f a5bd
00000040: ad40 833d 0b2b cd3c 5358 083e 477d 95bc
00000050: c5e4 70be 8c3b 8dbe 98a7 d13c dd3b babd
00000060: a19f 58be c153 3b3e bed6 e1bd ca51 6f3e
00000070: 476b aabd 7150 c73d 7783 98be 2142 1dbe
00000080: 81af cbbc 31eb be3e acf9 c33e c1c1 e8be
00000090: c346 30be da0a 4abd 8532 35be 92ed c93e
000000a0: 1ed7 2bbf 9ad4 27be 753a 213d 84af ba3d
000000b0: 3a3e 113e 2582 8bbe 1d65 04bf 966e 32be
000000c0: ed54 52bd d821 90bd da6b 8abd ccef 4fbe
000000d0: 4505 aa3c 226d a4be 65ad 5abe 191b bfbd
000000e0: 53af 273e 679a e5bd 8d05 113e 1e48 34bc
000000f0: 095a dfbe ef27 6ebd f05e 8ebd 14c3 e8bd
00000100: 8ae6 393e d4d5 dbbe 79ea 733e 07c5 b63e
00000110: 2a9c 383e 847b 20bd 380a 5dbe da99 9abe
00000120: 73e4 8abc 8401 8c3d 639c 4a3e e798 863d
00000130: e9e0 883e e616 dd3d 7e4a 6abd 3633 99bc
00000140: 0434 7abe 9d2d f03d 1944 0e3e 4315 41be
00000150: 81ce 2dbe 9429 92be 5c42 fcbd 1214 ba3d
00000160: 93db 0fbe cd92 52be 2cca de3c 998f 5dbd
00000170: 63ea d4bc 41e8 8fbd d9f8 19be e4f9 24bd
00000180: 410a 223d 8de9 e8bd d0a2 edbd 0e48 5abe
00000190: f7be 6e3d 3a72 a9bd 1f05 6dbd a4ee f9bc
000001a0: 1a72 b13a 1020 053d 35b2 5ebd c2df 91bd
000001b0: 68f5 b9bd ab87 94bc 25c1 1c3d 0a1c 6a3d
000001c0: bef1 4e3b 1637 ad3c 5edf 3e3d 6916 6d3d
000001d0: 3c53 6b3c 88f8 a4bd be0a fe3c 1a0f a1bd
000001e0: d829 9d3c 058d 623d d1d7 9abd f1ea 72bd
000001f0: 7468 82bc c479 123e 5365 24be 8106 99be
00000200: 1456 883d 2e5f 33bd ee74 aa3d b09e 10be
00000210: e4de cabe 7bf9 42be 8c7d 6dbe f22e ff3e
00000220: a060 1c3e df32 67be bab2 d5bd a545 2dbe
00000230: 2841 873e 85b6 e33d 04c7 99be e068 25be
00000240: bd91 cfbd 23e7 863e 7323 0b3e 1373 bebd
00000250: 60f5 653b ad31 3d3d 3cb8 053f a3be 5a3e
00000260: 63cc c5be c69a 933e bc1e 37be a8b6 123f
00000270: 4c15 69be a2b9 14bf 8111 553e e12d efbd
00000280: d56b 38be 16b5 aabf cd45 86bf 05ca 1abf
00000290: 86ac bcbe 6585 72bf fa8a c7be d9c9 abbe
000002a0: d928 3dbf 2a49 77be 65de 9bbc 1e16 61bf
000002b0: ec72 2ebf 7410 f2be 282a 3a3d 5ead 4c3e
000002c0: cb50 dcbd 2e59 4c3e fef6 5dbe 1bd7 e7bd
000002d0: bc79 c93e 9d2e a53c b2bc babc 86ef 543c
000002e0: 8c89 093d 52d1 5ebd 5e7a 713d bc25 cd3d
000002f0: 3e28 63bc 8a0c 06be 5784 c4be a74f 24bd
00000300: 4d00 97be 1b5e 21bf 9f9c 95bc 2bc8 17be
00000310: 6161 c9be 49ae 2fbf 913e 92be 240a c33e
00000320: bf87 7dbe 40cb cdbe d046 18be 5c8f b73d
00000330: b2f5 963d 029c 8c3e e09c 463e d539 62be
00000340: d014 30bb 22c6 093b 46cc 7a3d b564 6dbb
00000350: 85df 14be 5b4b 8abd a621 b6bc 9ca0 1cbe
00000360: 1400 95be 50aa 95be c5e4 f8bd 82a5 263e
00000370: 613d 463e 4932 cc3d 0e8e fa3c d8c2 4c3d
00000380: ca32 1dbe 44fb 303c 86da 27bd ff1b 27be
00000390: 671a 943e 21c6 d73e 1bbb 463d bf0a c9bd
000003a0: e4bc 68be e7a4 f7bb 9d54 313e 3bb1 2abe
000003b0: 65f2 a3bb 7973 f3be 944e 3bbe 12b7 d3bd
000003c0: 6e0c 9ebe 4196 f6be 74ba 73be b2f8 aebe
000003d0: af2b 77be 3eef a2be 810c 11bf a454 2bbf
000003e0: 1a6f 7ebe 33f9 cc3d 0e7f 90bd 0177 0f3b
000003f0: 0668 27bc a177 e63c d53b 67bd 86d7 7cbd
0.037271436 0.1482667 0.049324814 -0.093014635 0.0206483 0.08426019 0.2622779 0.04070323
0.36662617 -0.02165592 0.11131019 0.28699037 0.24096009 0.3069525 0.20938435 -0.08059664
0.0640882 0.025044939 0.13314943 -0.018248213 -0.23524769 -0.27584493 0.02559261 -0.09093449
-0.21154644 0.18293668 -0.11027287 0.23371044 -0.08321243 0.0973214 -0.297878 -0.15357257
-0.02486396 0.37288812 0.38276422 -0.45460322 -0.17214493 -0.049326755 -0.17695053 0.39439064
-0.6712512 -0.16389695 0.03936239 0.09115508 0.14183894 -0.2724773 -0.51716787 -0.17424998
-0.051350523 -0.07037705 -0.06758852 -0.20306319 0.020754466 -0.32114512 -0.21355207 -0.0933134
0.16375475 -0.112110905 0.14162274 -0.011003522 -0.4362338 -0.058143552 -0.06951702 -0.11365333
0.1815435 -0.42936575 0.23819913 0.35697195 0.18028322 -0.039180294 -0.2158593 -0.30195504
-0.016954636 0.068362266 0.1978622 0.065721326 0.26734093 0.10795383 -0.057199948 -0.018701177
-0.24433905 0.1172745 0.13893165 -0.18855767 -0.16973306 -0.28547347 -0.123173445 0.09085859
-0.14048605 -0.20563813 0.027196012 -0.054092024 -0.02599067 -0.07026721 -0.15036334 -0.040277377
0.03956056 -0.11372671 -0.1160332 -0.21316549 0.058287587 -0.0827374 -0.057866212 -0.0305093
0.0013538033 0.03250128 -0.05436917 -0.071227565 -0.09080011 -0.018131098 0.038270134 0.057155646
0.0031577195 0.021144431 0.04659974 0.0578827 0.014363106 -0.08055216 0.031010982 -0.078642085
0.019184992 0.055310268 -0.07560695 -0.05930609 -0.015918948 0.14304262 -0.16054277 -0.29887775
0.06657043 -0.043791942 0.08323084 -0.14123034 -0.39623177 -0.19040482 -0.23192424 0.49840504
0.15271235 -0.22578 -0.1043448 -0.16921099 0.26416898 0.11118797 -0.3003465 -0.16153288
-0.10135219 0.26348218 0.13587742 -0.092992924 0.0035088882 0.046189953 0.52234244 0.21361785
-0.38632497 0.2882902 -0.17882818 0.5730996 -0.2276203 -0.58095753 0.20807458 -0.116786726
-0.18009885 -1.3336513 -1.0490052 -0.6046451 -0.36850375 -0.94734794 -0.38973218 -0.33552435
-0.73890454 -0.24149004 -0.019026944 -0.87924373 -0.68144107 -0.47278178 0.04545036 0.1998801
-0.107575975 0.19955894 -0.21676251 -0.11320325 0.39350688 0.020163829 -0.022795055 0.01299656
0.03357844 -0.054398842 0.05895459 0.10016963 -0.013864575 -0.13090721 -0.38382217 -0.040115025
-0.29492417 -0.6303422 -0.01826316 -0.14822452 -0.39332107 -0.68625313 -0.2856336 0.38093674
-0.24758814 -0.4019413 -0.14870763 0.089628905 0.073710814 0.27462775 0.1939578 -0.22092374
-0.0026867874 0.0021022637 0.061229967 -0.0036223356 -0.14538391 -0.06752654 -0.022232842 -0.15295643
-0.29101622 -0.292315 -0.12153009 0.16274074 0.19359352 0.09970529 0.030585315 0.049990505
-0.15351406 0.010802094 -0.040979885 -0.16319273 0.28926393 0.42143348 0.04851828 -0.09816503
-0.22728306 -0.0075574997 0.17317434 -0.1666917 -0.005003261 -0.47549036 -0.18291694 -0.10337652
-0.30868858 -0.4816151 -0.23801595 -0.34174114 -0.24137758 -0.31823152 -0.56659704 -0.66926026
-0.2484707 0.100084685 -0.07055484 0.0021891 -0.010217672 0.028133215 -0.056453545 -0.061728977

conv2.bias f4 [16]
00000000: 1f54 903d 33ca 143f a1d0 ccbe bc1f df3e
00000010: 0439 093e 10f4 2bbe 6deb d3bc f27e 273d
00000020: 2af0 203f fb84 023f 728c c03e 0daa 883b
00000030: bbac d9bd 395d 903d b78c b13e fb56 823e
0.07047295 0.5812103 -0.4000292 0.435789 0.13400656 -0.16792321 -0.025869096 0.04089255
0.6286646 0.5098416 0.3760715 0.0041706623 -0.10628649 0.07049031 0.3467767 0.25456986

conv3.weight f4 [32, 16, 5, 5]
00000000: 4691 38bd 9600 c73b 01e4 813b f084 5cbb
00000010: 2964 3fbd a132 61bc 0976 3ebd 6c6e 313c
00000020: b95a 95bd e32b e7bc 95e7 6cbd d636 47bd
00000030: cf7a a3bd 8602 acbd 1d67 bdbd 4b89 43bd
00000040: ef31 a0bd ea07 80bd 5602 b5bc e200 b43c
00000050: c7d9 7bbd 6f06 d4bd 5f71 d3bc b700 77bc
00000060: 629a fcbc 4e29 0e3d d465 31bd 6312 8e3c
00000070: 9865 d23c 0793 71bd 09e8 7bbc b660 2dbd
00000080: 885b 36bb 3cb4 583d 0e1c 053d b77d 30bd
00000090: 1804 edbc a104 dd3c b35e 5aba a7c1 0fbc
000000a0: 867e 01bd 6e47 a1bc d4c8 32bd 96a1 68bd
000000b0: ab96 fdbc 0a67 10bc 32b4 983c e7b2 9fbd
000000c0: 72b6 c23b b28b 69bc d0fe 123d 2ca3 83bd
000000d0: 0fd0 0fbd 71be 35bc 7f87 44bc 8693 813c
000000e0: 0a7a 88bc 7fea bebd 07c3 8bbd fa41 4fbd
000000f0: 0e9b 55bd 566b 5abd 64a8 8cbd a7ad b2bd
00000100: 1bb8 aabd 4182 e93b d8d8 80bd b98c cebc
00000110: 2f53 1dbd 76d2 46bd 4d45 96bd 7dd3 fe3a
00000120: 9cd9 10bb 4c0f 0abd 99db 7dbd 107f 6ebd
00000130: 26cc 21bb 705e 67bd f297 32bd 7b77 8dbd
00000140: bd67 abbb 652d 32bd 6d96 a1bd ce26 17bd
00000150: fcea 50bd 87f3 cebd ed5e a3bd 72ad 90bc
00000160: ec9c 9dbd 92e3 c5bd b3f2 dc38 3958 dbbd
00000170: 6689 39bd 23d2 98bc 8eaa 9abd 0713 e53a
00000180: 4d14 c8bd 4528 26bd b1dd 22bd a633 02bd
00000190: 2308 29bd 4216 d2bc 46eb aabd 6f94 85bd
000001a0: e8f5 183c a731 4cbd 41ce 3fbd 7e12 61bc
000001b0: 1d37 9dbb f15e 983b cd5a 7bbd 7025 b4bc
000001c0: 3536 cabd f7e5 44bd 117d c5bd c7c8 3ebd
000001d0: 0574 a7bd 13d1 51bd 5c6b afbb 0b2a b93d
000001e0: d670 e03b fb07 25bd d538 40bd df2c ecbc
000001f0: b943 c5bd 15a0 8ebc c6ad 0b3d 1d95 43bd
00000200: 056f babc 1812 54bc f75e 74bd befa 2ebc
00000210: 9238 cb3b fb14 bbbd 162d a4bb 4cf0 31bd
00000220: 8007 fdbd c551 2cbd 787d 1abd 0c1d 0cbd
00000230: 49d0 72bd 846c 54bd 8e5b d03c 1b72 dd3b
00000240: 02c6 7ebd c3f7 d7bc ff24 7ebd 0129 90bd
00000250: 4808 aabc 4f3b a8bd 1ce2 36bd 6fd8 073d
00000260: 26d7 1ebd 3292 bbbd ff5c 5bbd 96a2 783c
00000270: f50a 3f3c 4fa8 853c 25cc 28bd 9099 69bc
00000280: f71c 4fbd 8e88 abbd c861 10bd 1110 4bbe
00000290: 0dd8 30be 9bfe a3bd 56aa 18bd db9a 09bd
000002a0: 769b c9bd 2858 82bb d8ee a2bd 6544 bbbd
000002b0: b5d0 9b3c ec0c ae3c 4299 1b3d eedf a9bc
000002c0: 7307 1c3d bd51 5fbb 4f62 c4bd 26ed d2bc
000002d0: 203e 5ebd d7dd 37bd 12ea 03bd 86e4 5f3d
000002e0: 02a9 ebbc 1b33 6abd 98a8 25bd cb6d 66bd
000002f0: 8ec4 29bd 52a3 c7bd 066b 4cbc 7b44 c2bd
00000300: c63b 69bc cb20 b0bc 55d0 dcbc 6f64 75bd
00000310: 0623 bcbc 5990 593b 4398 9a3c f721 693d
00000320: 20b3 c8bb 036f 83bd 8f3a 133d 6ee7 69bd
00000330: c9b0 63bc c0ff 3bbd 8206 6d3c 2a97 27bb
00000340: c6ab 45bd 79af 003b 5e22 c0bc 971a 81bd
00000350: 8a6e 113d 5908 fe3c 7c6d 963c 94dd 72bd
00000360: 1127 80bd 5fcf 26bd b998 ddbb 0cbb 633b
00000370: de69 17bd 28db 45ba 9e69 bcbc 1d40 533d
00000380: 9bab 67bd 1988 4abb 35a5 a93c fca2 9dbd
00000390: 9e82 a2bd 0c38 27bd 804f 02bd 9284 2fbd
000003a0: 8ec8 cb3c 92b3 723c d2a1 53bd 61b7 15bd
000003b0: ece1 f7bd 6612 dbbc 9870 a9bd 2eb6 85bd
000003c0: ac45 76bd 9b74 4dbd 4b76 cebd defd 0dbd
000003d0: aa59 9dbd 97bd 82bd bb66 9bbd 2d3e ddbd
000003e0: 6103 f9bd ba06 cdbc 85cb 9a3c 7c21 363c
000003f0: 267e 99bd 2061 65bc 1eda 8abc 196f 0cbd
-0.04506042 0.006073068 0.0039639478 -0.0033648573 -0.04672638 -0.013744981 -0.046499286 0.010829549
-0.072926946 -0.028219169 -0.05783804 -0.04863628 -0.07982408 -0.08398919 -0.09248183 -0.047738355
-0.07822024 -0.062515095 -0.02209584 0.021973077 -0.061486986 -0.103527896 -0.025810895 -0.015075854
-0.030835334 0.03470736 -0.04331 0.017342752 0.02568321 -0.058978107 -0.015375146 -0.04232856
-0.0027825553 0.05290626 0.03249746 -0.04308864 -0.028932616 0.026979746 -0.00083301513 -0.008774198
-0.031614803 -0.01968738 -0.043648556 -0.056794725 -0.030955633 -0.008813629 0.018640611 -0.07797795
0.0059421593 -0.014254497 0.03588754 -0.06427607 -0.03511053 -0.011092768 -0.011995195 0.015817415
-0.016659755 -0.0932207 -0.06824308 -0.05060003 -0.052149825 -0.05332502 -0.068680555 -0.08724528
-0.083358966 0.007126123 -0.0629136 -0.025213586 -0.03840941 -0.048540555 -0.07337437 0.001944169
-0.0022102362 -0.033705994 -0.061977003 -0.058226645 -0.0024688332 -0.056486547 -0.043601938 -0.06907555
-0.0052308724 -0.043500323 -0.078900196 -0.03690224 -0.05100535 -0.10105043 -0.0797709 -0.01766083
-0.07695946 -0.09662546 0.00010535624 -0.107101865 -0.04529705 -0.018654888 -0.07552062 0.0017476984
-0.09769497 -0.040565748 -0.039762203 -0.031787537 -0.041267525 -0.025645379 -0.08345656 -0.06522452
0.009335972 -0.04985204 -0.04682756 -0.013737319 -0.00479783 0.00464999 -0.06136589 -0.021990508
-0.098736204 -0.048070874 -0.09642995 -0.046578195 -0.08176426 -0.05122478 -0.0053533744 0.09041222
0.0068493886 -0.040290814 -0.0469292 -0.02882999 -0.09632058 -0.017410317 0.03410127 -0.047749627
-0.022758016 -0.012943767 -0.059660878 -0.010679899 0.006201812 -0.09134861 -0.0050102575 -0.043442056
-0.12354946 -0.04207017 -0.037717313 -0.03420739 -0.059280667 -0.0518613 0.025434282 0.006757987
-0.062200554 -0.02636326 -0.062047 -0.07039071 -0.020755902 -0.08214437 -0.04464923 0.03316539
-0.0387794 -0.09158744 -0.053555485 0.015175482 0.011660327 0.016315607 -0.041210312 -0.014257804
-0.050564732 -0.08375655 -0.0352495 -0.19830348 -0.17269917 -0.080075465 -0.03727182 -0.033594947
-0.09844105 -0.003977794 -0.07955712 -0.091439046 0.019020418 0.021246396 0.037987955 -0.02073666
0.03809304 -0.003407582 -0.095890634 -0.025747847 -0.054258466 -0.044889297 -0.03220565 0.054661296
-0.028767113 -0.057177644 -0.040443987 -0.05625705 -0.041447215 -0.09747948 -0.012476688 -0.09485718
-0.0142354425 -0.021500012 -0.02695481 -0.059910234 -0.02296592 0.003319761 0.018871432 0.056917157
-0.006124869 -0.06417658 0.035944518 -0.057105474 -0.013897129 -0.0458982 0.014466884 -0.0025572279
-0.04825952 0.001963584 -0.023453888 -0.063039 0.03550581 0.03100984 0.018362753 -0.059293345
-0.06257451 -0.04072511 -0.0067625907 0.003474894 -0.036966197 -0.00075476104 -0.022999581 0.051574815
-0.05656014 -0.0030903874 0.02070866 -0.076971024 -0.079350695 -0.040824935 -0.0318141 -0.04285104
0.024875905 0.014813321 -0.051667996 -0.036551837 -0.12103638 -0.026742171 -0.08273429 -0.06528889
-0.060125038 -0.05016003 -0.10081156 -0.034665935 -0.07683118 -0.06383818 -0.07587954 -0.10802875
-0.121588476 -0.025027622 0.018895874 0.011116382 -0.07494764 -0.014000207 -0.01694971 -0.03428564

conv3.bias f4 [32]
00000000: 5d06 8cbd 7620 25bf 4aff 71bd 801f c83e
00000010: 04eb 90bc ce0c a8be 8546 e8bd 38cf 3c3f
00000020: ae30 b33e 1d99 b33e 55db f8bd ab33 18be
00000030: d0e3 0dbe 6ea8 c43d 2c94 59be 6a16 893f
00000040: 9c2c 95be 2e8a cabd 611d 113f 4bf7 623e
00000050: ee44 47bf fc23 dfbc 02b5 6cbe 8efe d13d
00000060: 1494 d63e 603f 213e 7241 c3bc 2a9a 6b3f
00000070: 58de 1e3e 2772 14be 6a88 64be 6bcb d9be
-0.06837151 -0.64502656 -0.059081353 0.39086533 -0.01769019 -0.3282227 -0.113415755 0.7375369
0.34998077 0.35077754 -0.12151209 -0.1486346 -0.13856435 0.09602438 -0.2124793 1.0709965
-0.29135597 -0.09889637 0.56685454 0.22164647 -0.77839553 -0.027238838 -0.23115924 0.102536306
0.4190985 0.15746832 -0.023834918 0.9203211 0.15514505 -0.1449667 -0.22317663 -0.42538008

d1.weight f4 [128, 512]
00000000: 44a4 c0bc a0fd b93a a903 213d 766d 11bd
00000010: 93a5 183d 9c69 3fbc 4879 efbb fcff b5bc
00000020: 9bc9 123d 00df 083a f8db 473c 2ab4 9d3c
00000030: b840 e8bc 9dba dabc 2aa8 21bd 96d4 95bc
00000040: 77ca 25bd 407f aabb e83a bebb fda7 d3bc
00000050: e947 043d 4967 34bd dc4a 1cbd e3e3 61bd
00000060: 7b8f 85bd a463 0ebd 109d 80bd 0c4d 74bd
00000070: de8f 11bd e4be 093c 2c20 32bd c3ff 203d
00000080: 372c 9f3c 0aa9 8e3c dc53 f8bc 3a3a b73c
00000090: 2b5b 11bd 9894 8ebb f626 e7bc 501f 6b3b
000000a0: 5e51 983c d416 42bc 9a1b f8bc 7f26 323d
000000b0: 84ab 6cbc 2a57 84bc a809 d0bb bf6b 1d3d
000000c0: d849 eabb acc1 1c3b 6ae3 33bd 1b19 ec3b
000000d0: ce23 ebbb cec4 efbc 74e7 af3c 638b f7bb
000000e0: dd73 17bd aa4b 103d 2d71 b2bc a170 283c
000000f0: e877 64bc 2378 86bd 5951 59bd 38a0 09bd
00000100: f5f2 15bb 4595 743b d2d2 63bc 97f5 13bd
00000110: 653c 47bc 37f8 49bd 59ad 25bd ef87 61bd
00000120: 602f 2bbd 302b 84bc b8af df3c 51e0 3abd
00000130: 9a84 fbbc e284 53bd 8103 8ebd fab8 84bd
00000140: 9892 a63c d852 e9bb 341e de3c ac93 14ba
00000150: 995b c0bc 7fe5 9d3c 611b 82bc cbd2 5e3c
00000160: 451c 82bb 8059 71bb 63b8 31bd bbda 85bd
00000170: 229f 9ebc 81ea 8cbd 27ab 70bd 64d7 a1bc
00000180: 35eb 313d 3190 12bd 85bc 093d 499b 9abc
00000190: 6066 aa3b 764a d53c 447f e4bc 7160 c0bc
000001a0: 83e5 2e3d 1a89 10bd 7024 eabc 6c22 69bc
000001b0: 518d 0abd 5200 ab3c 1945 23bd d076 023c
000001c0: 35eb ae3c 9c97 183c 4d7a 71bd cf67 c7bc
000001d0: e7d0 f3bc 5a49 9f3c c205 813c 32c2 863c
000001e0: 0b85 25ba 35f2 25bd 7530 a9bc dd83 52bd
000001f0: 1910 1b3c 5658 5d3a 3764 c73b 3f23 c4bc
00000200: e336 05bc 94eb 85bc 9864 d03a 7b6a 2bbd
00000210: b1cd 6dbd 69ee 7d3b 3386 cfbc 1ce1 903c
00000220: 28c3 44bd fc0d 51bd 3cd6 e9bb 28e4 bbbd
00000230: 3f2f 083c d4f0 ad3b acdb 33bd 4a52 7dbd
00000240: e481 debc ef0a 053d 4dba f33b 46f1 e2bb
00000250: 927f bd3b faf9 4ebc c1cf 90bb 087a 7ebd
00000260: 9f1a 96ba 661d b6bc b00a 23bd 904e d63b
00000270: 5c58 153d b6bf 1ebd 4cb6 0fbc 03a0 033d
00000280: 41ae cfba 4dee 9fbc 3441 5ebc 324f 6bbd
00000290: d79c 283d de57 edbc 292b d2bc 1723 333b
000002a0: 6fab cfbc 9d98 f5bc 3d2c 26bd ae08 dabc
000002b0: ae5b d3bc fc2c 3abd d4da a93c 94c6 0abd
000002c0: 934c 96bd 0067 2839 6068 00bc 2c4c 52bd
000002d0: f9b9 73bd 8f4f 93bd ce68 e53c 6c41 333c
000002e0: faf5 3cbd 3ffc e6bc 42e4 a9bc 57b0 39bc
000002f0: dcfd dbbc 68ad 31bd 33f0 86bd faaa 62bd
00000300: 0e0b cdbc a245 d33c e019 1dbd de5e f03c
00000310: 21ca cfbc b734 d6bc 6762 0cbd 182b 843b
00000320: f8e4 0b3c 3eb1 8c3c b8b2 8a3b fd96 283d
00000330: 7ab1 843c c855 63bc d0ab d43b 8cd6 3dbc
00000340: f082 94bc ac39 5a3c 32d6 193d e811 f03c
00000350: 6bca 6cbd 824f 9cbc e3d4 3d3b 2c34 02bc
00000360: a77b bebd 0fa9 e9bc 76a5 413c 319a 70bc
00000370: f4f0 e53c 12ff 2bbd 5a67 66bd 8888 db3c
00000380: 4278 cdbc c801 24bd c086 4f3b 773d 9abc
00000390: e891 10bc bb4a 2a3d ada6 cfbc a8a9 c43c
000003a0: 2637 b4bc a24c d0bc 5b56 9539 50b2 22bd
000003b0: 1a72 f53b f680 47bd 8f2b 70ba 677f cabc
000003c0: 1550 e13b 6da3 dbbc e960 323d 9c59 19bd
000003d0: 3404 55bd 2d39 b93c 97e5 c3bc b4fd 34bc
000003e0: c320 28bd 6a53 0ebd 81ee c3ba d5ae 58bc
000003f0: fdc7 86bd d39b 7f3a 4604 24bc ea4d 40bd
-0.023515828 0.0014189966 0.03931013 -0.03550478 0.03726728 -0.011682894 -0.007308159 -0.02221679
0.035836797 0.0005221218 0.012198441 0.019250948 -0.028351173 -0.026700312 -0.039467014 -0.018289845
-0.04047629 -0.0052031577 -0.005805362 -0.025836939 0.03229514 -0.044043813 -0.03815733 -0.05514897
-0.06521507 -0.034762993 -0.06279957 -0.05964379 -0.035537593 0.008407328 -0.043487713 0.039306413
0.019430263 0.017414588 -0.030313425 0.022366632 -0.035487335 -0.00435121 -0.02821682 0.0035876818
0.018593486 -0.011846263 -0.030286599 0.043493744 -0.014445189 -0.016154844 -0.0063488074 0.038432833
-0.007149916 0.0023919148 -0.04391805 0.0072051412 -0.007175899 -0.029268648 0.02147267 -0.007554458
-0.03697573 0.03522841 -0.021782482 0.010280759 -0.0139446035 -0.06565883 -0.053056095 -0.033600062
-0.002288041 0.0037320417 -0.013905244 -0.036122885 -0.012160395 -0.04930898 -0.04044852 -0.055061277
-0.041793227 -0.016133875 0.027305469 -0.04562408 -0.030702878 -0.0516404 -0.06934262 -0.06480594
0.020333573 -0.0071204714 0.027114011 -0.0005667757 -0.023481177 0.019274471 -0.015882196 0.013600062
-0.003970655 -0.0036827028 -0.043388736 -0.0653586 -0.01936299 -0.068806656 -0.058756974 -0.019756027
0.0434372 -0.035782043 0.03362705 -0.018872874 0.0052001923 0.026036482 -0.027892716 -0.023483487
0.04269935 -0.035287 -0.028581828 -0.014229398 -0.033826176 0.020874176 -0.03986082 0.007962897
0.02135239 0.00931349 -0.058954526 -0.024341492 -0.029762698 0.019444156 0.015749816 0.016450021
-0.00063140754 -0.04051419 -0.020652989 -0.051395286 0.009464287 0.0008443644 0.0060849446 -0.023942588
-0.008130762 -0.016347684 0.001589912 -0.041849595 -0.05805749 0.003874684 -0.025332546 0.017685466
-0.048037678 -0.051038727 -0.0071361344 -0.09174377 0.008312046 0.00530825 -0.043910667 -0.061846055
-0.027161546 0.03248113 0.0074379803 -0.0069257347 0.00578303 -0.012632841 -0.0044192974 -0.062128097
-0.0011452026 -0.022230815 -0.039805114 0.006540127 0.03646122 -0.03875705 -0.00877149 0.03213502
-0.0015844778 -0.01952281 -0.01356535 -0.057448573 0.0411652 -0.028972562 -0.025655346 0.0027334148
-0.0253503 -0.029979998 -0.040569533 -0.026615467 -0.025800552 -0.045453057 0.020734228 -0.033880785
-0.07338824 0.00016060099 -0.007837385 -0.051342174 -0.05950353 -0.07192909 0.028004076 0.010940891
-0.04613302 -0.028196452 -0.020738725 -0.011333547 -0.026854448 -0.043378264 -0.06588783 -0.055338837
-0.025029685 0.02579004 -0.038354754 0.029342111 -0.025364937 -0.026148183 -0.03427353 0.0040334575
0.008538477 0.01717436 0.0042327307 0.04115962 0.016197909 -0.013875432 0.006490208 -0.0115867965
-0.018128842 0.013319414 0.03755779 0.029305413 -0.05781023 -0.019080881 0.0028966002 -0.007947009
-0.093009286 -0.028522996 0.011819234 -0.0146852 0.028068997 -0.0419913 -0.056250907 0.026798502
-0.025081757 -0.04004076 0.003166601 -0.018828137 -0.008823849 0.041575175 -0.025348032 0.02400668
-0.021998953 -0.025427166 0.00028483834 -0.039720833 0.0074904086 -0.04870697 -0.0009161764 -0.024718953
0.0068760016 -0.026811326 0.043549452 -0.037438974 -0.05200596 0.022610271 -0.023913188 -0.011046816
-0.04104687 -0.03474752 -0.0014948399 -0.013225277 -0.065811135 0.00097506976 -0.0100107845 -0.046949305

d1.bias f4 [128]
00000000: bc46 a6bc 31c8 a03e dd05 c83e 60bd 963e
00000010: 55a2 a6bd 76f0 1bbe c5ca 603f 04f0 20bd
00000020: 4223 25bd 967a 013f 6a1a bdbd 324b e1bc
00000030: 0c87 11bd 8e2e 2b3e fa40 373e 2eb2 ebbc
00000040: 31b6 23bd fcd3 3bbe 78da 91bc 3d4d 41be
00000050: 96e6 4dbc e2d3 d0bd b01c abbb 1d03 60bd
00000060: 07ff 7cbe 9622 35be e72e 7d3c cabb 183f
00000070: 0a0c e6bc 399e 89bc 9f60 51be 9033 e4bc
00000080: 3e1b d5be a0f5 72bd e6c4 0d3e d9ea 8e3d
00000090: c1e3 85bc 3ae9 90bd 2150 f1bc 957d 8ebc
000000a0: c803 8dbd 8775 1dbd 8b4d 423c f6d8 36ba
000000b0: f46a 0c3f 98bf 823d f9fe 24bd f7b4 8e3e
000000c0: 8a73 1bbd 07f7 bbbd 5fc0 62bd 2882 babd
000000d0: d9d8 273e b97f c2bc 9c6f c3bc c8a7 29bc
000000e0: e106 c03e 9208 4cbc afbd 9b3e 16ce 2b3e
000000f0: d069 a8bd a58d 95bd fb58 023d 89d0 383e
00000100: 50c0 adbd 71a2 5bbd 8a02 37bd 4230 31bd
00000110: ea35 55bd 6f87 a63d f134 29bd 63ab b9bc
00000120: 37f3 e9bc 6f14 383e 8861 83bd 3015 b7bd
00000130: 78d4 68bd 9db5 64bd 044a 64bb 11cb 3e3f
00000140: b4f5 9ebd 2c33 0dbd 0401 383f 5798 cf3e
00000150: c7ad 473c 5231 95bc 6c0f a1bd 1a21 25bc
00000160: 10fa 7fbc bc88 ad3e e514 c4bc 1de9 1fbd
00000170: ecc6 01bd 084e 413f 1f92 5dbe ff36 1d3e
00000180: 67a9 b03e 65c4 62bd 1e8c c0bc eaa3 553e
00000190: 208a 11bd 8834 01bd 9b98 0a3d 27dd 693e
000001a0: 75f8 3b3e bae3 91bd 7eed 44bc 3515 273f
000001b0: 6a54 0bbd f96e 06bd 998d 1fbd ad06 64bd
000001c0: 37ed 0cbd 94d5 febc 0f6c b1be 07a0 6ebc
000001d0: d7ad e93c 1633 62be 65ae d03e 2ef1 cbbd
000001e0: 9046 a1be 84b2 cfbd 6f49 d43e 9df9 343e
000001f0: 84f9 10bd 866e 893e 1cd9 653e eb0c 83bd
-0.0202974 0.31402734 0.39066973 0.29441357 -0.08136431 -0.15228447 0.878094 -0.039291397
-0.040316828 0.50577676 -0.09233554 -0.027501676 -0.03552918 0.16716978 0.1789588 -0.028771486
-0.039968673 -0.18342584 -0.01780437 -0.1887712 -0.012567183 -0.101966634 -0.0052219257 -0.05469047
-0.2470666 -0.17688975 0.015453077 0.59661543 -0.028081913 -0.01679908 -0.20447014 -0.027856618
-0.41622347 -0.059316278 0.13844642 0.069783874 -0.016343953 -0.070757344 -0.029457154 -0.017393867
-0.06885487 -0.03844216 0.011859308 -0.0006975079 0.548507 0.063842 -0.040282223 0.2787244
-0.037951984 -0.09177976 -0.05535924 -0.091068566 0.16391315 -0.023742544 -0.02385693 -0.010354944
0.37505248 -0.012453215 0.30418155 0.16777834 -0.08223307 -0.07302407 0.03182314 0.180483
-0.08483946 -0.053621713 -0.044680156 -0.043258913 -0.05205337 0.08131301 -0.041310254 -0.022664731
-0.028558357 0.17976545 -0.06415087 -0.08939588 -0.05684325 -0.055837262 -0.0034834156 0.74528605
-0.07761708 -0.03447263 0.7187655 0.40545914 0.012187428 -0.018211994 -0.078642696 -0.010078693
-0.015623584 0.33893383 -0.023935745 -0.039040674 -0.031683847 0.7550969 -0.21637772 0.1535301
0.34504244 -0.055363078 -0.023504313 0.2086331 -0.035532117 -0.03154424 0.033836942 0.22838269
0.18356498 -0.071235135 -0.012019513 0.65266734 -0.03401605 -0.032820676 -0.038953397 -0.05567043
-0.034405913 -0.031107701 -0.34652755 -0.014564521 0.028525276 -0.220898 0.40758052 -0.09958111
-0.31499147 -0.10141471 0.41462275 0.17673345 -0.035394207 0.26842135 0.22446102 -0.06398948

d2.weight f4 [64, 128]
00000000: 356e 933d 7aff 813c 443f 5bbd 74cc 393d
00000010: c5af 2f3c c8e2 d2ba 3cd3 ccbd 84f3 093d
00000020: 878d a7bd e646 bcbd 007e a5ba 598e ffba
00000030: 2898 bfbd 7d95 a6bd 7352 d7bc df2d 933d
00000040: 1003 74bd e57a 18bb 8ad1 a3bd cde0 1ebe
00000050: 268a 51bd d025 8b3c 63c0 28bc b3bd a4bd
00000060: 16cf 5dbd ff4b 6ebc 007c 99bc dcbe 66bc
00000070: a322 37bd a14e 203c 1c0b e8bc 4f2b 4ebd
00000080: ede6 07be 621d 293d 68e5 eebd 968b 4c3c
00000090: 3f86 02bd 3555 15bd a854 72bd fac6 4b3d
000000a0: 767b 463d 06b4 cebc eee7 92bd 5749 8f3d
000000b0: bcde 59bd 9da0 08be 86a8 4bbd a976 05be
000000c0: 9d97 40bb b78c b43d fda0 a53d 3fae a1bd
000000d0: 6914 64bd 18f2 93bd 4ea9 903d aa03 e9bb
000000e0: 7601 e6bd 1779 143c e1f6 af3b 7d61 c8bd
000000f0: c41e 5c3b e03a 673c a0a8 17bd d17e 44bd
00000100: 308c c0bc b6e4 d4b9 669f 9e3d ed9d dfbc
00000110: 0ca2 443d b646 1ebd fe58 603d 840e be3c
00000120: bb24 ae3d 0203 94bd 14a4 493d ae13 253d
00000130: 8110 653d 8a96 223d c9ec eebc 6d9e 17bd
00000140: c4b3 b3bd b5fe 90bd 32ea 853c c4fb 68bb
00000150: fc02 b7bd a203 503d e8f8 913c 07ca 6cbd
00000160: 5fed 99bb d9a2 c3bd 6059 1bbd c787 98bc
00000170: 4f3d 4abd bb34 60bd 0a99 9dbc b28f 83bd
00000180: 2e4e 3dbd ccc7 8f3d d05d 9bbd ac2a 75bd
00000190: ea6d 06bd 0022 4e3a 0fe6 eabc 624e bebc
000001a0: 0cd6 83bc 95c0 47bb e3f3 463b 6fd2 34bd
000001b0: 00cb 413c 7074 2dbc 4693 e0bc f8d3 c7bc
000001c0: e019 343c 870a 39bc 3637 f0bd 48e5 07bd
000001d0: 63e9 0b3c 8c74 b7bc bc12 aebc 6ff7 54bd
000001e0: d3bb 94bd 80e5 fdbc a8e2 94bc 63c4 8b3c
000001f0: 6cc8 ce3c ff66 a7bd c66f cfbc 0117 70bc
00000200: d6ce 3cbd 06c9 e73d b48f 08be cc8d fabe
00000210: 9b93 fb3d 46f9 c73d 267b 6d3e 9119 1cbc
00000220: aeaa 6fbd 461e a53d 0ba9 5e3b 0978 b6bd
00000230: 3ce8 48bb 4367 68be 22a7 5ebe cdf2 68bd
00000240: f03d 6b3c fea7 d0be 67c7 79bd ef3e 47be
00000250: e7e8 a5bc 695b 39bd b267 2a3d d9a0 6dbd
00000260: 0f7c 3cbd 96de 7d3e 4e56 313d 5cda 4c3e
00000270: 80e9 c43c c3b6 213d 1047 ef3b 779b 673d
00000280: 420b b33e 6445 a9bc 01be a4be 8593 eebd
00000290: 4fa6 89bd 8a5e 543d f8aa a53d 5436 563d
000002a0: 643f 88bd 4c30 73bd c16d 8d3d 6a69 f43d
000002b0: c7a6 773c a04d 843e 8e4d 9d3d bf21 6e3d
000002c0: b09c d83c 7986 47bd 68e6 833d 6460 a63d
000002d0: 9517 eabe 7de3 3e3d db1d f23c 544c 533d
000002e0: a19e 3f3d ce97 ab3c f11c e73d a183 0f3e
000002f0: 50df c1bb b549 3bbd 4b0a a2bc 8cc8 c5bc
00000300: 4076 d3bc 9c60 bebd 529b 87bc ffd0 7bbb
00000310: 3304 363e bc21 ad3b 7365 08bd 5317 af3d
00000320: 793a f03d 8d11 973e 39bd d7bc 8ecc b33d
00000330: a244 5a3d 0095 e73d 0ee5 223d 9e05 89bd
00000340: ce62 e13c 5fd2 bfbd a37d 8abe 6199 d7be
00000350: 5555 393e 0baa c6bd e951 453d 4a0f 503d
00000360: 6eb4 513e 8c85 94be aa2f 75bb e3ee 8c3c
00000370: e70b 7e3d b003 99be ec39 4fbd f0f9 b6bd
00000380: 1e3c a53d 0789 1b3e f12e 81bd ce43 4f3d
00000390: 8fa6 5bbd d8a8 31bd 2ba4 1abf bab6 10bd
000003a0: 2a9b 8abe 4b7b f23b 67e3 40bc 522e 12be
000003b0: 98a8 6bbd 6067 66bd 78de 06bc e13e 46bd
000003c0: 0ae4 003c 8c99 f0be 6a2c 35be 27bc 473c
000003d0: ef56 2abd 7897 10bc fc2f ccbe 1769 11bd
000003e0: a519 b63e bcf7 ffbd 1222 ec3d 8480 6d3e
000003f0: 8292 243d 2baa 07bd c307 45bd 693e 1ebc
0.07198755 0.015868891 -0.05352713 0.045360997 0.010723059 -0.0016089315 -0.10001227 0.0336795
-0.08181291 -0.0919321 -0.0012626052 -0.0019497379 -0.093551934 -0.081339814 -0.026284432 0.071864836
-0.059573233 -0.002326661 -0.07998951 -0.15515442 -0.05115714 0.016985804 -0.010299775 -0.08043995
-0.05415257 -0.014544486 -0.018735886 -0.01408359 -0.044710767 0.009784372 -0.02832561 -0.05033427
-0.13271685 0.041287787 -0.116648495 0.012484452 -0.03186631 -0.036458213 -0.059162766 0.049750306
0.048457585 -0.025232326 -0.07173143 0.0699641 -0.05319093 -0.13342519 -0.049721263 -0.13033547
-0.0029387244 0.08815902 0.08087347 -0.07894563 -0.055683527 -0.0722391 0.07063542 -0.0071110325
-0.112307474 0.009062073 0.0053700064 -0.097842194 0.0033587674 0.014113158 -0.037026048 -0.047972504
-0.023504347 -0.00040606194 0.077452466 -0.027296985 0.048006102 -0.038641654 0.05477237 0.023200281
0.085030995 -0.07227136 0.049228743 0.04030197 0.055923942 0.039694346 -0.029165642 -0.03701632
-0.08774522 -0.070798315 0.016347025 -0.0035550455 -0.08936116 0.050784715 0.017818883 -0.057809856
-0.0046974863 -0.09552545 -0.03792703 -0.018619431 -0.049374875 -0.054737788 -0.019238014 -0.06423892
-0.046217136 0.0702053 -0.07586253 -0.05985515 -0.032819666 0.0007863343 -0.028674154 -0.023230735
-0.016093276 -0.0030479778 0.003035777 -0.044145998 0.011828184 -0.010586843 -0.027413975 -0.024393067
0.010992497 -0.011294014 -0.11729281 -0.033177644 0.00853953 -0.022394441 -0.021249168 -0.051993784
-0.07262387 -0.030993223 -0.018174484 0.017061418 0.025242053 -0.08173942 -0.025321852 -0.014653922
-0.04609569 0.11317639 -0.13336068 -0.48936307 0.12284013 0.09764342 0.23191509 -0.00952758
-0.058512382 0.08062415 0.003397527 -0.08909614 -0.0030656 -0.22695641 -0.21743444 -0.056872178
0.014358029 -0.40753168 -0.06098118 -0.19457601 -0.020252658 -0.04525319 0.041602798 -0.058014724
-0.04601675 0.24791941 0.043295197 0.20005172 0.024037123 0.039480936 0.0073021725 0.056544747
0.34969527 -0.02066297 -0.3217621 -0.11649231 -0.06721174 0.051847972 0.0808925 0.052297905
-0.06652716 -0.05937223 0.069056995 0.11934169 0.015115446 0.25840473 0.07680808 0.05813765
0.026441902 -0.048712227 0.06440431 0.08123854 -0.45721117 0.04660367 0.029555252 0.051586464
0.04678214 0.02094641 0.11284817 0.14015056 -0.0059165135 -0.04572459 -0.019780299 -0.02414348
-0.025813222 -0.092957705 -0.016553555 -0.0038424132 0.1777504 0.0052835625 -0.033299875 0.085493706
0.11729903 0.29505578 -0.026335346 0.0877925 0.05328811 0.11307716 0.039769225 -0.066905245
0.027512934 -0.09366297 -0.27048978 -0.42109206 0.18098958 -0.09700402 0.04817382 0.05079583
0.20478985 -0.29008138 -0.0037412443 0.017203754 0.06202307 -0.29885626 -0.050592348 -0.089343905
0.08068107 0.1518899 -0.063077815 0.050601773 -0.05362564 -0.043373913 -0.6040675 -0.03533051
-0.27071506 0.0073999516 -0.011772967 -0.14275482 -0.05753383 -0.05625093 -0.008231752 -0.04839981
0.007866869 -0.46992147 -0.17692724 0.012190855 -0.041586813 -0.008825175 -0.3988036 -0.035500612
0.3556644 -0.124984235 0.11529936 0.23193556 0.040178783 -0.03312127 -0.048103105 -0.009658434

d2.bias f4 [64]
00000000: 0900 9abd 2b61 0f3e 2924 b43e d6bd 093e
00000010: d6e7 053f ebd6 b33e e655 01be 60d3 98be
00000020: debb 563f 8fc6 c93e f348 a23d 0010 9f3e
00000030: 1980 1f3e 40ff 013f 9b8d 2cbd c224 f53c
00000040: 67c1 34be f22f c4bd 445c 09bd 6697 8bbe
00000050: f325 34be 5db2 b23c a45c 353f fbf8 1abd
00000060: 03c2 a1bd 7ce7 223e 04a3 21be 6bea 74bd
00000070: f58d 45be 77c3 4f3f d38a d7be 4641 93bd
00000080: be36 ee3e 7810 e63e 147a 9e3e b5f6 bcbd
00000090: b1ef f2bd 1c18 ccbe 6b07 943e f5c2 0fbe
000000a0: c560 96bd 8f3c b33e 611a cfbe 1712 163e
000000b0: 15f6 57be f4a4 94be adc7 753e a22e 8a3e
000000c0: ab3f 423e 0a7f 673d 6647 ffbd 1bad df3e
000000d0: a51a 803e b633 193e 807e 093f 8b0e 89bd
000000e0: 5b1a 1dbe d9c0 1e3f a658 ab3e 59db b0bd
000000f0: f15a a1be 1d5a e73e d23a 67be b50b 9dbd
-0.07519538 0.1400191 0.35183838 0.13451323 0.5230688 0.35124907 -0.12630424 -0.29848766
0.8388041 0.394093 0.0792407 0.31066895 0.15576209 0.50780106 -0.042127233 0.029924754
-0.17651902 -0.09579457 -0.033535257 -0.27263945 -0.17592601 0.021813566 0.70844483 -0.037835103
-0.07898333 0.15908617 -0.15784842 -0.05979387 -0.19292434 0.8115763 -0.42098102 -0.07190184
0.4652614 0.4493444 0.30952513 -0.09226743 -0.11862124 -0.39862144 0.2891191 -0.14039214
-0.07342676 0.3500714 -0.40449813 0.14655338 -0.21089967 -0.290321 0.24001952 0.26988703
0.189696 0.05651764 -0.1246479 0.43686756 0.25020328 0.14961132 0.5370865 -0.06692227
-0.15342085 0.6201301 0.3346607 -0.08635587 -0.31514695 0.45185938 -0.22581032 -0.076682486

d3.weight f4 [10, 64]
00000000: f58a d4bd 8439 95be ad85 9dbd cf01 54be
00000010: ee21 9fbe a496 ca3d 95b9 86bf f35e 14be
00000020: 6f6b 57be d9f2 293d 9b38 433e 4569 3a3e
00000030: 954c c63d e6a4 74be d74b 19bd 9251 de3d
00000040: 0931 98be 9eab 55bd 1fc0 933d 3927 b4be
00000050: 5af8 12be b00c 9e3d cd17 6d3d d26e 7fbd
00000060: 85d4 cabd 1c5f 8dbe 543b 2bbd b14a 83bd
00000070: 015c 35bf a1db 43be 1202 81be b4ef 9abe
00000080: 9810 bd3d 0e9b 77be eddd 193d 0b8d 19bf
00000090: 802b 8cbd ce33 c5be 23f9 2a3d f1be a33d
000000a0: 4908 60bd b31f 85bd 4b4c dcbd 0025 42bd
000000b0: dad3 e13c d3d9 ca3d 2cb3 f03d b84d be3d
000000c0: 8720 6f3d ca70 173d 4818 7fbe 312d 96be
000000d0: b70e 28be 97ba 90bc ecdc b5bd 81f0 e53d
000000e0: 4fbd b8be f293 b6be a1cd a1be 4368 813c
000000f0: d62e 933d 7a07 febd 1620 ddbe dd3f f8bd
00000100: d21e 8dbc 2027 c93d b24d 813d 5ea8 16be
00000110: 80c9 073e 2e6f f7bb afac d9bf 7e9c bbbe
00000120: fb44 0dbe 5d05 35be 963c 133e 216c d5be
00000130: d975 173c f8ad 893d a051 553e 157d 993c
00000140: d19e a2be 4492 b2bd 3d0a aa3d ddec 8b3d
00000150: 29ca babd 756b bebd cb30 adbe 8417 9a3c
00000160: 2763 173d d315 fcbe 7361 2cbe a286 b33d
00000170: 3bdf 11bf c536 5cbe 2925 91be e661 62be
00000180: 0f21 a0be 4a20 fcbe 508e 1dbe cc78 a2be
00000190: dc13 7cbe 8549 45bf 1d37 f8bd 705a fb3d
000001a0: 1712 38be 6fff f63d afca 853e 0231 1abe
000001b0: b8b1 7f3d 8b10 e5be 0f5e 1cbd e949 9f3d
000001c0: 9c5e aebe a910 babd d14c 48be b3b0 22bf
000001d0: ed4f 733d 0108 e7bd 8d3f 4ebe b5da b33d
000001e0: cb65 51bd 3245 06bd f07c 6bbe e9f1 bbbe
000001f0: 83bf 52bf 20d6 bebd 9d9c 6cbe a8e0 62be
00000200: 2b94 85bd 2411 b3be ca4b 01be 28f5 393c
00000210: 83de bf3d e115 4f3d 6f81 81be 9fd4 35bd
00000220: 2348 9fbd d9b8 923d e55e 60be 3030 ff3d
00000230: fb91 efbc 1571 38bd f994 35bc 4aad 8d3d
00000240: bed4 1ebe 598c 0ebd 5eb2 4e3d 9c0d 2fbf
00000250: 8f93 bfbe 2b9a 043e f1fb 9ebc 8400 95bd
00000260: 327f e5bd 5955 3cbe de9e 6bbd 53dd 64be
00000270: a9fe a3be 6937 f5bd f48a 4f3e 8c08 15bf
00000280: a236 c23d 6dd3 b33c 6764 763d d77d 423d
00000290: ff38 51bd e743 8fbe ee7d 3e3e 6114 cd3d
000002a0: 05d0 8abe 62be f9bc e885 b8bd 78eb 813e
000002b0: e97e 40bd a4e6 49be ca3a 83bd a902 5ebe
000002c0: 05bf 523d b09e a5bd e5a0 273d 8b5e e03d
000002d0: 0eac 23bd 05d4 babe 79c0 41be f332 1a3c
000002e0: fce5 42bf 412e 4e3d b046 103d 99c0 0d3e
000002f0: 2041 51bd ab0a 47be 7f6c f4be f333 f2be
00000300: 7f31 27bd 99dc d2bd dfe8 38be 4d98 d13c
00000310: eb29 0d3d e221 b8bd 8d90 07bf 6bb5 0ebe
00000320: a272 8b3d 6cc1 23be b34f b6bb ff93 7f3c
00000330: 6f86 133d d563 62bd 45d3 c6bc dc01 4fbe
00000340: 9ce8 5bbe 7452 38be ce38 46be 32fe 06be
00000350: 6115 a0be e124 3ebc c696 02bb 0b15 14be
00000360: 6ed5 433d f534 2cbe 67fd 34be a03e 7d3d
00000370: b4af 91be 06dc 823d 86c1 00bf de13 d4be
00000380: d118 c0bc fe78 7dbc 5244 003d 3025 87be
00000390: 513f 1bbe 3398 1cbe bba6 7abe 2df4 60be
000003a0: c58f a6be 2668 9dbe dd44 75bd 1dc4 093d
000003b0: 9273 ed3c f5a5 4d3d 2376 92be 0de4 a6be
000003c0: 3186 063e 5f80 753d 31b8 5abe 5002 863d
000003d0: 5ea8 3d3e 1c58 17be 8cb9 a33c d1bc cebd
000003e0: bdba 4cbe d967 7e3d e1b2 7b3d 6b72 dcbe
000003f0: 7476 f0be 6eb2 f33d cc87 8ebe b892 02bd
-0.103780665 -0.29145443 -0.07691512 -0.20703815 -0.31080574 0.09892014 -1.0525385 -0.14489345
-0.21037076 0.041491363 0.19064562 0.1820422 0.096825756 -0.23891029 -0.037425842 0.10855402
-0.2972491 -0.05216562 0.072143786 -0.35186175 -0.14352551 0.07717264 0.057884026 -0.062361546
-0.09903816 -0.27611625 -0.041804627 -0.06410731 -0.7084351 -0.1912675 -0.25196892 -0.30261004
0.09231681 -0.24180242 0.03756516 -0.5998084 -0.068442345 -0.38516086 0.0417415 0.079954036
-0.0546954 -0.06500187 -0.10756739 -0.047398567 0.027566839 0.09904828 0.11752924 0.092921674
0.05838063 0.0369728 -0.24911606 -0.29331353 -0.16411863 -0.017667098 -0.08880028 0.11227513
-0.3608193 -0.35659748 -0.31602195 0.015796786 0.071866676 -0.1240377 -0.43188542 -0.12121556
-0.01722661 0.098219156 0.06313647 -0.14712664 0.1326046 -0.0075510954 -1.7005824 -0.36642832
-0.13795845 -0.17677827 0.1437858 -0.41684058 0.009244406 0.06722635 0.20831919 0.018736402
-0.31761792 -0.08719304 0.08302734 0.068322875 -0.0912059 -0.092978396 -0.3382629 0.018810041
0.036959793 -0.492354 -0.16834049 0.087659135 -0.5698125 -0.21505268 -0.28348663 -0.22107658
-0.31275222 -0.49243385 -0.15386319 -0.31732786 -0.24616951 -0.77065307 -0.12119887 0.12273109
-0.1797565 0.12060439 0.26131198 -0.15057757 0.062425345 -0.44739184 -0.03817564 0.07777769
-0.34056556 -0.09085209 -0.19560553 -0.6355087 0.059402395 -0.112808235 -0.2014143 0.087819494
-0.051122468 -0.032780834 -0.22996879 -0.36708 -0.82323474 -0.09318185 -0.23106618 -0.22156012
-0.065224014 -0.34974015 -0.12626567 0.011349954 0.093686126 0.050557975 -0.25294062 -0.044392224
-0.07777431 0.07164163 -0.219112 0.12460363 -0.029244414 -0.04502972 -0.011082881 0.06917818
-0.15510842 -0.034801815 0.050463073 -0.6838014 -0.37417266 0.12949435 -0.019407244 -0.07275489
-0.11205901 -0.18391933 -0.057524554 -0.22350053 -0.32030228 -0.11973459 0.2026785 -0.58216166
0.09483077 0.021951402 0.060154345 0.04748329 -0.051079746 -0.27981493 0.18602726 0.100136526
-0.2711183 -0.03048629 -0.090099156 0.2537496 -0.04699603 -0.19716889 -0.064076975 -0.21680702
0.0514517 -0.08086908 0.040924925 0.10955533 -0.039959006 -0.36489883 -0.18921079 0.009411561
-0.7613218 0.05033708 0.035223663 0.13843001 -0.0510875 -0.19437663 -0.47739026 -0.4730526
-0.040818688 -0.10295982 -0.18057583 0.025585318 0.034463804 -0.08990838 -0.5295494 -0.13936393
0.06808974 -0.15991753 -0.0055637 0.01559925 0.036016878 -0.05527099 -0.024270663 -0.20215553
-0.21475452 -0.18000203 -0.19357607 -0.13182905 -0.3126631 -0.011605472 -0.0019926294 -0.14461152
0.047810964 -0.16817077 -0.1767479 0.061827302 -0.28454363 0.063896224 -0.50295293 -0.41421407
-0.023449333 -0.015470741 0.031315155 -0.2639556 -0.15160872 -0.15292434 -0.24477665 -0.21968146
-0.32531562 -0.3074352 -0.059880126 0.033634294 0.028985772 0.050207097 -0.28605756 -0.32595864
0.13137127 0.059936877 -0.21359326 0.0654341 0.18521258 -0.14779705 0.019985937 -0.100946076
-0.1999311 0.062110756 0.06144989 -0.43056044 -0.46965373 0.11899267 -0.2783798 -0.031878203

d3.bias f4 [10]
00000000: f681 ddbe 9d7b 18bf fa52 ebbd 7c90 653e
00000010: cea4 c33e 34c1 643d 42a7 ab3d 2fa6 0cbe
00000020: 2595 bdbd 31e5 623e
-0.43263215 -0.5956362 -0.11490436 0.22418398 0.38211673 0.055848315 0.08381511 -0.13735269
-0.09256963 0.22157742
